release/model_749kb.tflite (tflite, 749424 bytes, 100 tensors)

build_network/model/output/output/output_conv1x1_out/Conv2D_bias f4 [4]
000000 d1 ed c0 be ea b1 93 be c9 eb 96 be 99 be a2 be
       -0.3768144 -0.28846675 -0.29476765 -0.3178604

build_network/model/reception/reception/reception_conv7x7_out/Conv2D_bias f4 [32]
000000 85 de 08 40 89 d4 9c 3f c0 28 fc bf b0 c0 0c c0
       2.1385815 1.225236 -1.9699936 -2.1992607
000010 33 05 f5 bf 12 de 83 3e ce 85 04 c0 ca 94 fe bf
       -1.9142212 0.25755364 -2.0706668 -1.9889157
000020 da 4a d6 bf 72 e3 03 40 e0 9c c2 3e 25 ef 05 c0
       -1.6741593 2.0607572 0.3801031 -2.0927212
000030 81 3c f2 3f 9c b9 07 40 d4 a0 3f 3f a0 b5 19 c0
       1.8924714 2.1207037 0.7485478 -2.4017105
000040 07 92 00 40 86 84 f5 3f 33 bf cb bf fe db 0c c0
       2.0089128 1.9181068 -1.5917724 -2.2009273
000050 f0 2c 0a c0 3d c6 00 40 31 30 0e c0 72 c6 f6 be
       -2.1589928 2.0120995 -2.2216914 -0.48198277
000060 1a 0f d3 3f 36 1c da bf 07 64 f8 bf 04 82 08 c0
       1.6488984 -1.7039859 -1.9405526 -2.1329355
000070 16 02 05 c0 0e f9 0d c0 b4 ec fd 3f be 32 18 c0
       -2.0782523 -2.218326 1.9837861 -2.378097

build_network/model/reception/reception/reception_receptconv0/inverted_bottleneck/inverted_bottleneck_bottleneck/Conv2D_bias f4 [160]
000000 52 bf 77 bc 18 ce c0 bd a4 1a ae 3d 91 bb c1 bc
       -0.015121298 -0.09414309 0.08501175 -0.023649009
000010 8d 77 3b 3e da 8c 0c 3d 7e 93 31 3c 78 ba 1b be
       0.18307324 0.034314014 0.0108383875 -0.15207851
000020 d7 75 9a be 2e 47 5d bd 90 35 8e bc 51 0e ce 3b
       -0.3016803 -0.05402296 -0.017359525 0.0062883277
000030 0b df 7e 3e 9c 85 fc bd 97 93 aa bd 87 fb b4 3c
       0.24889772 -0.123301715 -0.08328932 0.022092594
000040 1d 8e 07 bd f6 99 cd 3c 6b 90 07 3e 8b 1a 62 be
       -0.033094514 0.025097828 0.13238685 -0.22080438
000050 04 99 fb 3d 5a 76 a9 3c 2f db d7 3c 61 48 82 3d
       0.12285045 0.020686317 0.026349632 0.063614614
000060 8c b6 53 be a4 db 9d be e5 a3 c2 bc 29 30 0a 3e
       -0.20675105 -0.30831635 -0.023759792 0.13494934
000070 aa 6c ad 3d c8 41 6d 3d cf 50 17 3e 78 89 8e 3c
       0.08467992 0.057924062 0.1477692 0.017399535
000080 cb 38 a5 3d 81 b4 e3 bc 46 bb 19 3e d2 51 c2 be
       0.08067473 -0.027796032 0.15012845 -0.3795305
000090 e8 77 01 be a7 de cd bd 7e 2b 66 bd a4 d5 81 bd
       -0.12643397 -0.10052233 -0.05619382 -0.06339577
0000a0 5c 02 26 be 19 75 9d 3e c5 57 08 3e 7d ed 2d 3d
       -0.16211838 0.307534 0.13314731 0.042462815
0000b0 35 5d b9 bd b2 c4 a9 bd 92 55 fe bd 87 44 9e 3e
       -0.09050981 -0.0828947 -0.12418665 0.30911657
0000c0 2b bc a3 3e d0 db 0c be 1d 7e 29 3e b8 5b 8d 3b
       0.31979498 -0.13755727 0.16552015 0.0043139122
0000d0 e4 f5 0e 3d 8b a4 a8 be 23 4f 8e 3e cb 8e c8 3d
       0.03490247 -0.32938036 0.27794752 0.097928606
0000e0 6c d3 d0 3d c0 1c 38 3c 18 86 6c bd 0c a1 08 3e
       0.101965755 0.011237323 -0.05774507 0.13342685
0000f0 fe 9b 8a 3e f0 85 e9 bd 99 3f a8 3c b1 ea 37 3d
       0.27072138 -0.114025 0.020538138 0.044901554
000100 da db 54 be 4c fa 94 3d 78 bd 3c 3e 04 41 b2 3d
       -0.20786992 0.07274303 0.18431652 0.08703807
000110 7b 55 2c be 76 e6 01 be 10 16 3e bc 24 91 9e bd
       -0.16829483 -0.1268557 -0.01160194 -0.07742527
000120 7a 68 a9 bb 80 d3 07 3e ea e0 5f 3e 25 09 6f 3e
       -0.0051699253 0.13264275 0.21863142 0.23343332
000130 7c 04 8e 3e 7f 6b 4f be 1e 54 ce bd ed 54 50 bc
       0.27737796 -0.2025585 -0.10074638 -0.01271556
000140 6e 6b 18 bd af 43 48 3e 3f 7c 00 be 4a 21 ab be
       -0.037211828 0.19557069 -0.12547396 -0.33423835
000150 b9 ec a2 3e 41 c0 76 bd 02 ac 83 3e 03 a6 7c be
       0.3182123 -0.06024194 0.2571717 -0.24672703
000160 3e 91 89 3c 77 fa 5a 3d a9 59 9c be 83 c1 ba 3d
       0.01679289 0.05346152 -0.30537155 0.09118941
000170 5d 9b 69 3e d5 af fe 3d 6c 11 02 be cf 27 32 3e
       0.22813173 0.12435881 -0.12701958 0.17397998
000180 5d dd 4e be 6c 85 db 3d aa 4e b2 bd bc 40 70 3d
       -0.20201631 0.107188076 -0.0870641 0.058655486
000190 3c 59 06 3e 9f 53 84 3d 68 97 d2 3d 1b 06 bf 3d
       0.13119978 0.06461262 0.10282785 0.093273364
0001a0 de ae e5 bd 16 be 96 3d ac ae f8 bd 0b 9b a8 3d
       -0.11214994 0.07360475 -0.12142691 0.08232697
0001b0 42 ec 2a 3d 68 23 82 3d 19 cd 23 3e f4 c3 8e 3a
       0.04172922 0.063544095 0.15996207 0.0010892139
0001c0 85 bf 33 bd 43 5d 69 bd 36 f6 9d 3d 1a 2c 4b 3e
       -0.04388382 -0.056973707 0.07712977 0.19841042
0001d0 7e 46 7c be 84 ac 20 3e ce 84 50 bd bc ea 09 be
       -0.24636266 0.1569081 -0.050907902 -0.1346845
0001e0 f2 c0 fd bc 0e 0a 22 be 43 29 91 be 38 91 06 be
       -0.030975793 -0.15824148 -0.28351793 -0.13141334
0001f0 5a fd 6b 3d 23 e4 a2 bd 9a 76 a9 3d 63 82 8e be
       0.05761466 -0.0795367 0.082745746 -0.27833852
000200 ca 05 66 bf 53 e6 7c be 69 e6 d3 3e 00 46 05 3e
       -0.89852583 -0.24697237 0.41386726 0.13014984
000210 ba b8 a7 3e ed f2 52 3d 4f 2b 48 3e 59 e8 c6 3d
       0.32758123 0.051501203 0.19547771 0.097122855
000220 23 c9 bc bd 4a 56 89 3d 90 c3 a0 bd b9 57 8f bd
       -0.09218051 0.067059115 -0.078498006 -0.06999154
000230 03 4e a6 bd ef 43 f8 3d 59 5b c1 3e 55 f7 dd 3e
       -0.08120348 0.12122332 0.37765005 0.43352762
000240 e4 f2 98 bd 77 06 67 3e fb da 00 be b8 92 63 3e
       -0.07468203 0.2256106 -0.12583534 0.22223938
000250 a2 eb 2c 3b 7d 5d a0 be e7 5b b9 bd ae 80 d1 be
       0.0026385565 -0.31321326 -0.09050732 -0.40918487
000260 48 16 9b be e7 10 8e 3d 43 b0 04 3e a1 93 4f 3d
       -0.30290437 0.069368176 0.12957864 0.0506779
000270 3c 6f 41 be 56 6d 91 3e 20 b5 6e 3e 46 1c c4 3c
       -0.18890089 0.2840373 0.23311281 0.023939263

build_network/model/reception/reception/reception_receptconv0/inverted_bottleneck/inverted_bottleneck_dwise_conv/depthwise_bias f4 [160]
000000 fc 96 bd 3c 59 41 d6 3e 60 26 c5 3d 3f f0 0a be
       0.023143284 0.4184673 0.0962646 -0.13568209
000010 41 1c 14 bd c7 0d 04 bd 2c d3 f1 3d cc 36 8f 3d
       -0.036159758 -0.0322397 0.11807856 0.069928735
000020 77 64 89 bd 92 4e 01 3e bf 5b 1f 3b 75 3c ab 3c
       -0.06708615 0.12627628 0.002431616 0.020902852
000030 ca 33 d5 bd b4 e5 05 3d bd 47 21 bd 31 d6 bf 3c
       -0.104102686 0.032689765 -0.039375056 0.023417564
000040 f4 a1 90 bd 34 24 d0 bb fd 29 02 3e 2d 62 20 bd
       -0.0706214 -0.006351972 0.1271133 -0.039156128
000050 8d f6 62 bd d2 d6 f3 3d 43 27 a4 3d fb a1 76 bd
       -0.05541091 0.11906208 0.08015301 -0.06021307
000060 fb 17 3c be ff 4b ee 3d e2 3b 0f be f1 3c 38 3c
       -0.18368523 0.11635589 -0.13987687 0.011244998
000070 ed 38 40 3e ec ca 49 3d 49 ec fe bc bc 65 eb 3d
       0.18771715 0.049265787 -0.031118529 0.11494014
000080 11 23 34 3d 61 7d 2f be 83 47 47 3e ea ae ac bd
       0.043978754 -0.17137672 0.19460873 -0.084318
000090 30 cc 2f be 08 3f 11 be bd 33 d0 bd 7b b2 a0 bd
       -0.17167735 -0.14184201 -0.10166118 -0.078465424
0000a0 6c 28 fc bd 25 01 b5 bc 12 34 8b 3d 0c c3 c4 3d
       -0.12312397 -0.022095272 0.06797041 0.09607515
0000b0 d4 75 8e b8 7d 86 2a 3d eb 17 eb 3d fc b0 ec be
       -6.793035e-05 0.041632164 0.11479171 -0.46228778
0000c0 7f eb 8f 3d 16 04 45 bd 89 fd 92 3e 5e a6 52 3e
       0.07027339 -0.0480996 0.28709057 0.20571277
0000d0 ae 30 ca bd a1 24 28 bb 5a 3a 10 3e 9f b8 e6 bd
       -0.09872566 -0.0025656598 0.1408476 -0.112656824
0000e0 ab d1 ad 3d e4 4c 87 bd c6 c0 05 3e bb 4e 4e 3d
       0.084872566 -0.066064626 0.13061818 0.050368052
0000f0 24 7d ca bc 97 3d b8 bd 2f 2f 1c 3e 3e f2 89 bd
       -0.024717875 -0.08996122 0.15252374 -0.06735657
000100 56 d9 e5 bd 51 35 93 3e ec 27 af 3d b7 5d 2e be
       -0.11223094 0.28751615 0.08552536 -0.17027937
000110 02 c2 04 3d ab 95 1f 3d a3 0c e6 bd ec 7f 40 be
       0.032411583 0.038961094 -0.11232879 -0.18798798
000120 20 65 fa 3d 1f 7b 5d bd c8 f8 38 3e 4f a0 08 3e
       0.12226319 -0.054072496 0.18063653 0.13342403
000130 d5 72 1c be 8b 49 2a bc da 3c 75 be df fc 0b bd
       -0.1527818 -0.010393511 -0.23948994 -0.034176704
000140 c4 25 1b be 44 3f 2e 3e 67 2d 09 bd b0 7f 13 be
       -0.15151125 0.17016321 -0.033490565 -0.14404178
000150 bf 71 25 3e 3d a5 98 3b 3e 9f 3e bc 24 35 07 be
       0.16156672 0.00465837 -0.011634646 -0.13203865
000160 bc 13 81 3d 52 5a 7a 3e ff 9c 6d bd 0d e1 7b 3e
       0.06302592 0.24448517 -0.05801105 0.24597569
000170 f6 a7 47 3e 12 2d 20 3e 18 f0 7b 3d 24 ff 56 be
       0.19497666 0.15642193 0.061508268 -0.20995766
000180 14 35 56 3e eb 05 54 bd da f7 86 3c ba 62 f0 bc
       0.20918685 -0.051763456 0.016475607 -0.029343951
000190 c4 d7 8f bd 81 ba 10 bd 68 06 8a be f7 49 2f be
       -0.07023576 -0.035334114 -0.26958013 -0.17118059
0001a0 32 40 97 be e0 fc 7c 3e 57 4c 12 be 3c 64 92 3c
       -0.29541165 0.24705839 -0.14286934 0.017870061
0001b0 30 e3 17 bd 8b de 6a bd 53 ef 2b bd fb 5a 2a 3c
       -0.037081897 -0.05734114 -0.041976284 0.010397668
0001c0 42 05 b6 3d 9c 3e 16 3c ae 3a 58 3e 98 2f 31 3d
       0.088877216 0.009170201 0.21116135 0.04325828
0001d0 80 1b 92 bc cd bd 00 3d 1e 8c 7e 3b 10 56 4f bd
       -0.017835379 0.031431008 0.003884084 -0.050619185
0001e0 b6 db 13 3d ab 1a 04 3e 7c ed 07 bd 55 f1 71 bd
       0.036098205 0.12900798 -0.033185467 -0.059068043
0001f0 3a 7a 91 3d 6e ed f1 3d 49 8b a5 3d 11 98 2b be
       0.07103391 0.11812864 0.08083207 -0.16757227
000200 86 62 08 be 7c 59 0a 3e 3e 58 27 3e a0 99 e8 bc
       -0.13318834 0.13510698 0.16342255 -0.028393567
000210 1e 47 95 3d 4c 20 91 3e dd d2 5e be f4 e3 86 bd
       0.07288955 0.28344953 -0.21760125 -0.06586447
000220 3f b8 03 3d 66 fa f1 3d a4 d6 d4 bc 70 10 37 3e
       0.032158133 0.11815338 -0.025981255 0.17877364
000230 8c f7 99 3c 6f 52 3f 3e 3f 5d 0b be ce 06 ee 3e
       0.018794797 0.1868379 -0.1360979 0.46489567
000240 fe 12 17 3e c9 40 2e 3e 9f 89 f5 3b 68 c1 67 3e
       0.14753339 0.17016901 0.0074932124 0.22632372
000250 2c 82 9b bc 41 40 96 3d c0 31 f8 3d 05 38 08 be
       -0.01898297 0.07336474 0.12118864 -0.1330262
000260 2d c5 73 3d 7a c0 5c 3b 4a 39 9b 3d 02 d3 0a be
       0.059514213 0.003368406 0.075792864 -0.13557056
000270 95 35 7a 3e 58 9c 5b 3d f2 7e 15 be b3 cc 67 bc
       0.24434502 0.053615898 -0.14599207 -0.014147925

build_network/model/reception/reception/reception_receptconv0/inverted_bottleneck/inverted_bottleneck_pwise_conv/Conv2D_bias f4 [32]
000000 10 a0 f7 3f 68 78 1e c0 0a 55 87 40 35 7a 3b c0
       1.9345722 -2.476099 4.2291307 -2.929334
000010 8f 99 9b 40 3c 89 39 c0 45 32 69 bf ab ce 85 3f
       4.862495 -2.8990011 -0.9109233 1.0453695
000020 66 5b e5 3f c6 d3 4e 40 0f 05 d9 40 48 6f 92 c0
       1.7918518 3.2316756 6.7818675 -4.576084
000030 6f f4 86 bf e8 f3 01 c0 73 2a 34 3f 72 0d c5 bf
       -1.0543345 -2.0305119 0.7037727 -1.5394728
000040 57 bc 98 be 5d 51 53 c0 da 0e a4 40 c3 90 56 c0
       -0.29831192 -3.301841 5.126813 -3.3525856
000050 1d 80 99 40 8d 01 4f c0 a7 5c 7e c0 ee aa c2 3d
       4.796889 -3.2344697 -3.974405 0.095052585
000060 6b e8 0e 40 38 ea 55 c0 b8 bc 04 c0 1e d7 86 40
       2.2329357 -3.3424206 -2.0740185 4.2137594
000070 9f 22 3a c0 2a b9 71 c0 76 9e 53 bf ec 4d 1e 40
       -2.908363 -3.7769265 -0.8266367 2.473506

build_network/model/stacked_hg/hourglass0/hg_conv0/inverted_bottleneck/inverted_bottleneck_bottleneck/Conv2D_bias f4 [160]
000000 d2 c0 99 3d d8 cc e9 bd 03 ec 1c be b5 1f 15 3d
       0.07507481 -0.11416024 -0.15324406 0.03640719
000010 e8 0d 32 3e db 1e bd be fe 31 96 3d d8 9c 80 3e
       0.17388117 -0.36937603 0.07333754 0.25119662
000020 17 38 f9 3b 34 f1 d8 bd 59 83 14 bc cd 24 88 3e
       0.0076055634 -0.10592881 -0.009064519 0.26590577
000030 56 21 30 be a6 9f 4e 3c 6c f6 9d 3d 3f a7 0a 3d
       -0.17200217 0.012611305 0.07713017 0.033850905
000040 20 cb 77 3e 5d dc bb bd 52 33 08 be ef 61 ec bd
       0.2419858 -0.0917289 -0.13300827 -0.11542117
000050 0c d3 00 3e cb 13 73 be f8 07 30 be 93 1c df 3c
       0.12580508 -0.23738019 -0.1719054 0.027235305
000060 93 60 77 3e 3d 1b 44 be 72 d8 9c bd 5a 9a 85 3e
       0.24157934 -0.19151016 -0.07658471 0.26094323
000070 b3 70 de be 6c 7d 12 be fa 03 f5 3d fe fd 24 3e
       -0.43445358 -0.14305657 0.11963649 0.16112515
000080 a8 49 7a 3e 30 ab e8 3d b9 2a f2 bd 18 f2 b3 3e
       0.2444216 0.113607764 -0.11824555 0.3514564
000090 0a 54 f6 3d 54 3c 03 be 11 08 84 3d bb c2 98 3d
       0.12027748 -0.12815982 0.06446851 0.07459017
0000a0 e1 56 0f 3e bc 33 44 3e fa ad 09 be b9 71 e0 bd
       0.13997985 0.1916036 -0.13445273 -0.10959191
0000b0 35 d7 af 3d 20 98 23 3e 5f 3f 1f be a7 4d 64 3e
       0.08585969 0.15976 -0.15551518 0.22295247
0000c0 fc 96 fb be c7 db da 3d ad c1 f1 bd 44 c2 c3 bd
       -0.4913863 0.106864505 -0.11804519 -0.095585376
0000d0 af 5f 9f be 20 72 d7 bd 05 20 87 3e 98 88 00 be
       -0.31127688 -0.105198145 0.26391616 -0.12552106
0000e0 3c 60 0b be 51 5e 64 bc de 4a 00 3e 4b 34 8b 3d
       -0.13610929 -0.013938502 0.1252856 0.067970835
0000f0 29 09 cb 3d 0a 77 24 3e e8 4c a6 be 72 5b 08 3d
       0.099138565 0.16061035 -0.3248055 0.033290334
000100 7e 80 b0 bd ce 21 2a bd 1c 61 93 bc 36 cd c4 bc
       -0.08618258 -0.041536145 -0.017990641 -0.024023633
000110 0e ca 97 3d 15 66 b0 bd 2e bf 82 3d 30 6c 72 3e
       0.07411586 -0.086132206 0.06384121 0.23674083
000120 cd 87 52 bd 90 b2 a0 3d 4e 5c 97 3e 23 ab cb 3d
       -0.05139904 0.07846558 0.2956261 0.09944751
000130 8c 7e 2f be b6 49 5b 3e eb 1f 31 be b7 c2 da 3d
       -0.17138118 0.21414837 -0.17297332 0.1068167
000140 f6 b4 9b 3d 31 15 ea bc c0 c9 3c 3e 99 46 28 be
       0.07602875 -0.028574558 0.18436337 -0.16433181
000150 54 81 56 be e8 47 d3 3d d9 96 44 be 12 28 0d bd
       -0.20947772 0.103164494 -0.19198169 -0.034462042
000160 d1 51 44 bd 7a 13 f2 3c d4 d6 77 bd f0 04 bc 3c
       -0.04792959 0.029550303 -0.06050761 0.022951573
000170 4f d2 06 be 63 b0 c4 3c 8d d9 46 bd 7f 03 e3 bb
       -0.13166164 0.024009889 -0.048547316 -0.006927907
000180 26 63 83 bd 67 be 16 3e 5f 16 31 bd af db 9d be
       -0.064153954 0.1472107 -0.043234225 -0.30831668
000190 9f 5a 8e 3e 2c 92 1d 3a 19 83 48 bc 0d e7 23 3e
       0.27803513 0.0006010856 -0.012238287 0.16006108
0001a0 4a 37 b0 3d b1 dc 81 3d 9c 5f 7f 3e 5a 6d 84 bd
       0.086042956 0.06340922 0.24938816 -0.0646617
0001b0 39 6d ce bc 36 80 28 3e 3b 14 bb 3c 4c 38 64 3d
       -0.025198566 0.16455159 0.022836795 0.05571775
0001c0 46 cd a7 3c 09 96 a1 bd e1 02 7e bd f5 5f 96 3e
       0.020483624 -0.07889945 -0.062014464 0.29370084
0001d0 a3 0b e6 bd 85 e7 07 be d4 c2 58 3e 5b 05 20 be
       -0.11232688 -0.13271911 0.21168071 -0.15627043
0001e0 19 ae c0 bd 96 43 67 bc c1 2a e3 bb 6b 63 dc 3e
       -0.094082065 -0.014115235 -0.006932587 0.430446
0001f0 2d c7 85 bd ed 2b 85 3e 50 49 52 bc 44 94 a0 3d
       -0.065321304 0.26010075 -0.012834862 0.078407794
000200 44 f2 8b 3e 4a 8d b1 bd 37 46 a1 3d d4 65 b1 be
       0.27333272 -0.08669527 0.078747205 -0.34648
000210 ef d6 35 be b4 75 7e be 23 ad 5e 3e e7 2b 32 bd
       -0.17757772 -0.24849588 0.21745734 -0.0434989
000220 19 3a a1 3d 6d c8 a2 3d 35 72 22 3c c8 03 ae bd
       0.078724094 0.079483844 0.009914924 -0.08496815
000230 a7 ee c0 3d 2d 22 bb 3c 9a 47 94 be e1 5d 04 be
       0.09420519 0.022843445 -0.28960878 -0.12926437
000240 20 5c 9e bd 7f 17 c2 3c f2 b7 12 be 45 72 1b be
       -0.07732415 0.023692844 -0.14327982 -0.15180309
000250 44 8f 74 bd 47 8b d2 bd 44 93 7c be 30 6a ca bd
       -0.05970694 -0.10280471 -0.24665552 -0.09883535
000260 1e 90 04 3e b2 cf 4e be e7 3b dc 3e 93 ed 04 be
       0.12945601 -0.20196417 0.43014452 -0.12981252
000270 13 07 df 3d 4b d5 db bd 37 b3 71 bd a5 ed 64 be
       0.10890021 -0.10734042 -0.059008803 -0.22356279

build_network/model/stacked_hg/hourglass0/hg_conv0/inverted_bottleneck/inverted_bottleneck_dwise_conv/depthwise_bias f4 [160]
000000 31 4d cc 3a c2 22 7e 3d aa 4b 88 be 85 ef bf 3e
       0.001558697 0.062044866 -0.26620227 0.37487426
000010 55 4d 9e 3d f6 a9 f3 3d 04 ed 98 bc dd 6c a3 3d
       0.07729594 0.11897652 -0.018667705 0.079797484
000020 1e dd b4 3d 36 38 19 3c 43 21 8a 3d 65 8b 49 bd
       0.08831237 0.009351781 0.067446254 -0.049205203
000030 22 c3 10 be 46 37 a5 3d 07 5b bd 3d 4f 08 55 3e
       -0.14136937 0.08067183 0.09245878 0.2080395
000040 97 19 0c be 8b 57 50 bd f2 88 99 bd 33 2a bb 3d
       -0.13681637 -0.050864737 -0.07496823 0.09138908
000050 e9 fb 81 bd 9e 48 b3 3c 9f 90 c9 3c 00 ee 8a bd
       -0.06346876 0.021885213 0.024605094 -0.06783676
000060 8d 16 19 3e dc d1 bc 3d a5 d9 64 3e 28 e8 14 bd
       0.14950009 0.09219715 0.2234865 -0.036354214
000070 06 70 fe bd a9 29 7d 3d af ff 67 3d 1f ec b1 3d
       -0.124237105 0.06180731 0.056640323 0.08687615
000080 dc f0 08 3e bc de ca 3c 06 10 3a bd 21 63 db 3c
       0.1337313 0.024764411 -0.045425437 0.026780667
000090 89 e1 c8 3d e2 25 da 3d 05 db 17 3e 92 2a f7 3d
       0.098086424 0.10651757 0.14829643 0.120686665
0000a0 1b e6 0a 3e e3 40 ab 3d 4c 27 c1 3d 4e b3 9c be
       0.13564341 0.083619855 0.094313234 -0.3060555
0000b0 b7 b3 2a 3e 21 20 ee 3c 6c 0b e7 bd 83 a0 94 bc
       0.16670118 0.029068055 -0.112814754 -0.018142944
0000c0 5a dc 53 be bc 7c 20 3d 6e cc e6 3c 3b 89 64 3d
       -0.20689526 0.039181456 0.028173652 0.055794936
0000d0 e7 19 34 bd 07 91 06 be ea e2 d4 3d 47 7e d3 bd
       -0.043970015 -0.13141261 0.10394843 -0.1032682
0000e0 fa 8b 7b 3e ea 6c 90 bd e2 56 10 3d a2 03 4c 3e
       0.24565116 -0.07052024 0.035239108 0.19923261
0000f0 c4 22 84 bc 81 78 92 3d 12 60 0b be 75 9a 10 be
       -0.016129859 0.071518905 -0.13610867 -0.1412142
000100 f0 bf a7 3c b7 e7 16 3c 7e 5f ba 3d 19 0e 1d bc
       0.020477265 0.009210519 0.09100245 -0.009585881
000110 a6 4e c3 3d f1 a5 60 bb b0 eb cd 3d 04 b8 0f 3e
       0.095364854 -0.0034278596 0.100547194 0.1403504
000120 df 7f 80 3e af 4d 09 be a4 a7 49 3e c5 57 3e bd
       0.25097558 -0.1340854 0.19692856 -0.046470422
000130 67 1e e0 3d 34 2c f2 3c 19 33 0e be b6 35 8c bc
       0.10943299 0.029562093 -0.1388668 -0.017115455
000140 0b 66 c9 bd 2f de 16 3e cb e0 2a 3c b0 70 40 be
       -0.09833916 0.14733194 0.010429571 -0.18792987
000150 e8 0f 5a bd 0b 0b 58 3e 09 f3 b3 3d 2e 6e 46 bd
       -0.053237826 0.21097963 0.0878659 -0.04844492
000160 46 75 88 be 6c 9b 26 be 0e e9 e2 3d b9 c7 9e bc
       -0.26651973 -0.16270226 0.11079608 -0.019382345
000170 a7 51 c6 3e b9 a5 5d bd bf 7d 36 be 38 a5 dc bd
       0.3873417 -0.054113124 -0.17821406 -0.107737005
000180 3f 97 bd 3d 00 5e 0d be 46 be 1d bd 20 73 be bd
       0.092573635 -0.1380539 -0.038511537 -0.09299302
000190 06 4d 26 3e 72 24 c5 bd 5e 3e 61 3d 83 19 08 bb
       0.1624032 -0.09626092 0.05499112 -0.002076716
0001a0 c2 dd 9c 3e 95 0d 74 be e1 91 27 3e a9 24 b7 3d
       0.30637938 -0.23833306 0.16364242 0.08942539
0001b0 f8 02 c1 3c a4 70 c1 3d 82 f5 ee 3d 92 fc 9b 3b
       0.023560986 0.094453126 0.11667921 0.0047603333
0001c0 67 2b 5f 3d bd 0c 3f 3e 2d a2 8c 3e 1f 4c 8e 3e
       0.05448475 0.18657203 0.2746748 0.2779245
0001d0 1e ad 15 3e 50 cd 8b 3e f3 55 a4 3e 97 8e 21 be
       0.1461682 0.27305079 0.32096824 -0.1577705
0001e0 82 ac bd 3c fd 29 5a 3e db a3 7c 3d 78 59 89 3e
       0.023153547 0.2130508 0.061679702 0.26826072
0001f0 da 4c dd bd 90 79 86 be e1 23 01 be 4c 89 21 3e
       -0.10805674 -0.2626462 -0.12611343 0.15775031
000200 28 0f e3 bd c2 7b e1 3d 92 c0 1a 3d 0e 87 3e bd
       -0.11086875 0.11009933 0.037781306 -0.046515517
000210 e5 e2 06 bd bd 36 30 be 3f 00 5a 3e 04 57 0b 3d
       -0.032931227 -0.17208381 0.21289156 0.03401853
000220 ef 8e ef 3d 55 84 ad bc 32 b5 b5 3e 65 2f 22 3e
       0.11697184 -0.021181265 0.35489804 0.15838392
000230 65 f7 52 3e 36 25 3a 3e 44 cb e1 bd ba 36 a1 3d
       0.20602186 0.18178257 -0.11025098 0.078717664
000240 84 82 d0 bb 5b 51 6d 3e 39 8d bd 3c a5 21 01 3e
       -0.006363215 0.23175566 0.02313863 0.1261049
000250 0d 3c f0 3d e8 d3 6e 3d 63 1b 2c 3e a5 ee 0d 3e
       0.11730204 0.05830756 0.16807322 0.13860567
000260 5c 6f a2 3d ea 57 b1 bd 9d 12 1d be 36 fa 1e be
       0.07931396 -0.086593464 -0.15339132 -0.15525135
000270 5d 1e 02 3f 0b cd d5 3d 26 ba a2 3e 02 0b 6c 3e
       0.5082758 0.104394995 0.31782645 0.23051074

build_network/model/stacked_hg/hourglass0/hg_conv0/inverted_bottleneck/inverted_bottleneck_pwise_conv/Conv2D_bias f4 [32]
000000 27 74 12 40 ea c1 85 3d fe b0 56 c0 68 91 2f c0
       2.2883394 0.06531127 -3.3545527 -2.74325
000010 4b 6a 7f 40 0c b8 1e c0 87 27 08 c1 de e3 e0 3f
       3.9908626 -2.4799833 -8.50965 1.756954
000020 a1 43 a5 3f 5c 5c e1 3f 77 54 de 40 f3 2c 25 3f
       1.2911264 1.7606311 6.9478106 0.6452171
000030 a8 8c 0f c0 e0 c5 ea 3f 5a 85 1b c0 87 e6 a0 be
       -2.24296 1.8341637 -2.4300141 -0.31425878
000040 7a 87 bf c0 a7 fb 56 40 2d dd 81 3e 22 63 bb c0
       -5.9852877 3.3591096 0.25364056 -5.855851
000050 8e 7b 4c c0 19 2d 83 40 62 2e e7 c0 d3 7c a2 40
       -3.1950412 4.099255 -7.224412 5.0777373
000060 bb cc 80 c0 1a 4f e4 c0 cc 23 ce 3c 8d 67 48 3f
       -4.0249915 -7.134656 0.025163554 0.78283006
000070 73 90 f6 40 f2 22 18 3f 3d 05 32 bf 34 0e 9e 3f
       7.705133 0.5942832 -0.69539243 1.2348084

build_network/model/stacked_hg/hourglass0/hg_conv1/inverted_bottleneck/inverted_bottleneck_bottleneck/Conv2D_bias f4 [160]
000000 47 3e 4a bd d1 2b 57 3e e4 db 16 be 98 0d 93 be
       -0.0493758 0.21012808 -0.14732319 -0.2872131
000010 84 cd 7d be 75 16 53 be 7e 1c ef 3d 07 74 03 3e
       -0.24785429 -0.20614035 0.11675356 0.1283723
000020 91 3d 83 b9 1b 36 17 3d 7e 5b 01 bd 2e c3 d9 bc
       -0.00025032138 0.036916833 -0.031581394 -0.026582327
000030 93 71 35 3d c4 7a 49 3d a8 1e 10 3e b3 1c a3 be
       0.044297766 0.049189344 0.14074194 -0.31857833
000040 dd fa 9c 3d a0 79 23 3e 37 35 c9 3c e4 3d 27 be
       0.07665036 0.15964365 0.024561508 -0.16332203
000050 93 ca ce 3d 94 02 1f 3d 69 74 a1 bd e0 e4 5b 3b
       0.10097232 0.038820818 -0.078835316 0.0033553168
000060 47 ba 22 be 02 86 ab 3d 62 26 4e be 5f 3f 7f bd
       -0.15891372 0.08375169 -0.2013183 -0.062316295
000070 56 29 0a 3e 89 14 b0 be 6a 7d 2c bd 24 62 7e 3e
       0.13492331 -0.34390667 -0.04211179 0.24842125
000080 ee e5 83 3d f4 30 06 3e d1 05 1e 3e 10 88 fa 3d
       0.0644034 0.13104612 0.15431906 0.12232983
000090 9e 68 11 be 77 db c8 bd dc 98 24 bd 69 d2 01 3d
       -0.14200065 -0.098074846 -0.04018484 0.031694803
0000a0 36 0d 2e 3d 87 84 8e 3e c4 d0 d9 bd db 43 cb bb
       0.042493068 0.27835485 -0.10635522 -0.0062031574
0000b0 46 e8 4f be 09 1e 2c be bc d2 b1 be 11 a1 b7 3e
       -0.20303449 -0.16808333 -0.3473109 0.3586507
0000c0 4c 06 9b 3d 1d e0 8a 3d 79 d5 ab bd 28 66 85 3b
       0.075695604 0.067810275 -0.08390326 0.004071016
0000d0 82 a0 c2 bd cf 9a e3 3e 61 cb f5 3d 2c 53 4c 3d
       -0.09503271 0.44454047 0.12001682 0.049884006
0000e0 51 8b aa 3e f7 63 8b 3d b2 49 6c 3d 8d eb b1 be
       0.33309415 0.06806176 0.05768747 -0.34750023
0000f0 b4 20 02 bd 93 3c 34 3e a8 c2 0c 3e 5f 1d 9c 3d
       -0.03176947 0.17601232 0.1374613 0.076227896
000100 73 2c 23 be 05 0d 6d bc 3c f7 b8 3d 51 df 61 3e
       -0.15934925 -0.014468436 0.09031531 0.22057845
000110 19 55 00 bd 7f 57 b5 bd d1 e4 42 be d0 b8 6c 3d
       -0.031331155 -0.08854579 -0.19032599 0.05779344
000120 71 79 50 bd 9f 72 4b 3f fa 27 bf bc 9f 5c dc bd
       -0.050897066 0.7947177 -0.023334492 -0.107598536
000130 60 7e 8e 3b 7b c5 ec 3d 2c b5 db be f6 4f f0 3d
       0.004348561 0.11561104 -0.4291166 0.11734001
000140 f0 a8 ca 3d 81 9c da bd b9 13 0c be f8 ca 33 3e
       0.098955035 -0.10674382 -0.13679399 0.17557895
000150 94 f2 73 be a6 44 3f be 0c 6a a2 3d ec 62 11 3e
       -0.23823005 -0.18678531 0.07930383 0.14197892
000160 29 5e 90 be 64 2a 81 bc 60 a8 26 be cc ee 06 be
       -0.28196838 -0.015767284 -0.16275167 -0.13177031
000170 cf aa 83 3d 75 2c e5 bc 8a ba 56 3d ba 0c df 3d
       0.064290635 -0.0279753 0.05242399 0.10891099
000180 7c 31 b0 3b c1 c3 2c 3e 4a ef 71 be 79 dd 87 3d
       0.0053769927 0.16871549 -0.23626438 0.066340394
000190 aa 7b 0c be 94 0b 40 be ad 7e 30 be 8c 97 0d 3d
       -0.13719049 -0.18754417 -0.17235823 0.034568354
0001a0 e7 c8 7b 3d 2d 24 37 3e ba 43 75 bd 61 8a ad bd
       0.061470892 0.17884894 -0.059879042 -0.08473659
0001b0 31 08 1e bf ce a3 ce 3b 69 d3 d7 3d 74 3f 04 be
       -0.6173125 0.006306148 0.1053837 -0.1291483
0001c0 59 e5 9b 3c 9f fa 27 be bd 6c 78 bd 6c a7 f0 3d
       0.01903026 -0.16404198 -0.060650576 0.11750683
0001d0 50 fb 3c 3e 3e d8 86 3e 8c 3d f6 bc c7 b3 a3 bd
       0.18455243 0.26336855 -0.030058645 -0.07993274
0001e0 f8 c9 0a 3e 33 5f 7b 3e 8f eb 27 be 2c e4 2c 3e
       0.13553607 0.24548034 -0.16398452 0.16883916
0001f0 fb 4b b3 3d 4c 93 c0 3c 6a 3a 9d 3d ec 52 85 3e
       0.087547265 0.023507737 0.07677157 0.26039827
000200 e2 22 9b bd 7f 6b 18 3e 55 a5 b5 bd 28 a7 4d 3d
       -0.07575013 0.14884757 -0.08869425 0.05020824
000210 f9 59 00 3e 2a 94 e0 3d 95 52 6f 3e bf 7d a2 bc
       0.12534322 0.1096576 0.23371346 -0.019835351
000220 21 53 c8 3d 6b 25 05 3e 3b 51 e7 3d b0 e8 4d 3d
       0.097814806 0.13002555 0.1129479 0.050270736
000230 06 bf bf be 66 45 92 3d 8e 11 ed bd 29 91 40 3e
       -0.37450427 0.07142143 -0.11575614 0.18805374
000240 46 ea 41 be 52 eb 64 be 7c af 13 be f8 42 c7 3c
       -0.18937024 -0.22355393 -0.1442241 0.024323925
000250 7a a9 1a 3e 2e d1 57 be 6a b6 d6 3d a4 43 76 bd
       0.15103713 -0.2107589 0.104840115 -0.0601231
000260 04 95 17 3e d0 f4 0f 3c 98 5b 55 3e f9 13 d1 3d
       0.14802939 0.008786395 0.20835721 0.102088876
000270 03 6b 23 3d c4 76 db bd 2e 3c 61 3d 14 ab 58 bc
       0.039896976 -0.10716012 0.054989032 -0.013224382

build_network/model/stacked_hg/hourglass0/hg_conv1/inverted_bottleneck/inverted_bottleneck_dwise_conv/depthwise_bias f4 [160]
000000 63 f3 64 3d 85 a1 2c 3d 95 25 91 bd cd 8c 1a bd
       0.055896174 0.042146225 -0.07087246 -0.037731934
000010 81 85 c2 be 8e 66 58 3e a2 a3 6c bd e4 8f 5b 3e
       -0.3799248 0.21132872 -0.05777324 0.21441609
000020 e0 91 75 3e 3c 36 74 3e 94 06 93 3e 93 55 0b 3e
       0.23981428 0.23848814 0.28715956 0.13606863
000030 88 f1 c8 bc b4 2c dd 3d 49 a2 00 3c c5 28 b8 bd
       -0.024529234 0.10799542 0.007851192 -0.08992151
000040 69 1c 91 bc 64 a8 5d 3d 70 9d 36 3e b1 21 1e 3e
       -0.017713742 0.054115668 0.17833495 0.1544254
000050 6f f7 03 3d 6e 0d d7 3e ba ca 9f 3e e7 d5 52 3e
       0.032218393 0.42002434 0.31209356 0.2058941
000060 c1 1f 52 3e 64 be 2d be 93 da 96 3e 62 d1 43 3e
       0.20519926 -0.1696716 0.29463634 0.19122842
000070 c2 fd 2d 3e 78 e1 83 be 2b fa 76 3c e0 28 9e 3d
       0.16991332 -0.25757957 0.015074293 0.0772264
000080 9c 0d d3 3c 32 e0 0e bd 38 df 7d 3d 74 d0 4b bd
       0.025763325 -0.034881778 0.061980456 -0.049759343
000090 94 23 71 bd 2d 98 d8 3a 73 da 87 3e 98 89 a6 3b
       -0.05887182 0.0016524844 0.2653385 0.0050823204
0000a0 b8 b0 1a 3d fb 4b d7 3d e2 e0 85 3e 00 d5 7c bd
       0.03776619 0.10512539 0.26148134 -0.06172657
0000b0 60 ef 9f be da dd 2c be e4 f5 8a 3e 79 59 7f 3e
       -0.31237316 -0.16881505 0.27140725 0.24936475
0000c0 33 37 34 bd d3 f0 19 bd 43 1f 63 bd f1 98 1f be
       -0.043997955 -0.037583183 -0.055449735 -0.15585686
0000d0 38 58 f2 3d 6a f1 a1 3d d7 2c 93 3d a3 a7 c3 3d
       0.11833233 0.07907374 0.07186287 0.095534585
0000e0 d1 4b 8b be 29 e5 e0 bd ae b4 1b 3e a5 c3 6e bb
       -0.2720628 -0.10981209 0.15205643 -0.0036432531
0000f0 3b ac 14 be 83 95 62 3d c5 c3 12 bd e9 b7 3d be
       -0.14518826 0.055318367 -0.03583123 -0.18527187
000100 b3 a9 0d 3e 1a 94 97 3d 9c 23 29 3e 60 2a 32 3e
       0.13834266 0.07401295 0.1651749 0.17398977
000110 90 ab b7 3d 46 91 85 bc 11 ca a6 3e 26 08 3e 3e
       0.0896827 -0.016304623 0.3257604 0.18557796
000120 91 29 2f 3e 32 33 90 3e 07 d5 45 3e 99 eb 56 be
       0.171057 0.2816406 0.19319545 -0.20988311
000130 2c 8a e0 3d 31 8b 11 3c 3c f1 1e bc 1b 2b 3b be
       0.10963854 0.0088832835 -0.009701069 -0.18278162
000140 cd aa d6 3d 97 27 9f 3e 03 66 35 3e 3c c5 d8 bc
       0.104817964 0.31084892 0.17714696 -0.026461236
000150 ea 53 c4 bd 5c b0 6b 3e 3f de 5a 3e b0 a0 07 be
       -0.09586318 0.23016495 0.21373843 -0.13244891
000160 1c 0c 80 3c 5c 4c f9 bb fa 63 48 be f0 8a 2f be
       0.015630774 -0.0076079797 -0.19569388 -0.17142844
000170 8d f7 90 3d c8 53 62 bd b7 17 ea 3b b4 54 4a 3e
       0.070784666 -0.05525568 0.0071439403 0.19758874
000180 dc 8c d2 3e 0e 66 86 3d af 7e 95 bd b6 c3 b4 3c
       0.41123092 0.06562434 -0.072995536 0.022065978
000190 24 c6 58 bd 0e 4e ed 3b 10 7a 4d 3e ae fd ca be
       -0.052923337 0.007241971 0.20066094 -0.39646667
0001a0 c9 a9 06 bd 99 55 94 3e c0 1b cf bd df 68 f1 3d
       -0.032876763 0.28971556 -0.10112715 0.11787581
0001b0 9d 50 57 be 60 b7 38 3e 93 10 ac 3d 7a 5a f2 3e
       -0.21026845 0.18038702 0.08401599 0.47334653
0001c0 df 16 2d 3e a6 80 f2 bd 90 9d 1c 3e a5 e6 29 3d
       0.16903256 -0.11840944 0.1529448 0.041479725
0001d0 1e 43 97 3e b1 5b aa 3e 7f ca 8d 3c f1 83 fd 3c
       0.29543394 0.3327308 0.017308472 0.030946704
0001e0 cf 3d 3a 3e cc 91 a4 3d bf 41 61 be e6 34 06 3e
       0.1818764 0.08035621 -0.21997736 0.13106117
0001f0 89 22 ee bc 4d 00 83 bd f5 18 6a 3e d8 02 0e 3d
       -0.029069202 -0.06396542 0.22861083 0.03467068
000200 c5 a7 90 be 57 4b 3c bd 5c 47 0f 3e 86 fd da 3d
       -0.28252998 -0.045970287 0.13992065 0.10692887
000210 51 15 5c be 02 a1 75 3d a7 d1 a6 3e 3f 77 a9 3e
       -0.21492507 0.059968002 0.32581827 0.3309879
000220 b5 f0 34 bd 0c f1 d3 bd 87 f2 53 3e 24 6b 45 3e
       -0.04417487 -0.103487104 0.20697986 0.19279152
000230 ef 88 90 3d 2d bc 09 3e aa ae 95 bd 4c 04 17 3d
       0.07057368 0.1345069 -0.07308705 0.036869332
000240 e6 42 c1 3e c9 cc c6 bd 08 4a 9c 3e b0 6d b2 3d
       0.37746352 -0.097070284 0.3052523 0.087123275
000250 9e b9 61 be 9a b6 3e be 81 bf 6f bd 70 f2 de 3e
       -0.22043464 -0.18624344 -0.05853224 0.4354434
000260 fd ea 18 3e 92 b8 d8 bb 77 bb 11 be c4 21 79 3e
       0.14933391 -0.0066137994 -0.14231668 0.24329287
000270 02 a7 0b be 6c 7f 0a 3d b8 e0 28 be 7d d6 35 3d
       -0.13637927 0.033812925 -0.16491973 0.044394005

build_network/model/stacked_hg/hourglass0/hg_conv1/inverted_bottleneck/inverted_bottleneck_pwise_conv/Conv2D_bias f4 [32]
000000 4e 4d 89 3e 59 24 0a 40 94 c6 80 3f 0a 47 b5 c0
       0.2681679 2.1584685 1.0060601 -5.6649218
000010 0f 82 da c0 6f e4 22 c0 9a 29 59 40 84 5a cf c0
       -6.8283763 -2.5451925 3.3931642 -6.4797993
000020 66 b9 05 3f 80 8b 7b c0 44 f3 05 3d 89 33 05 40
       0.5223602 -3.9303894 0.0327027 2.0812705
000030 c2 e5 3f 3e d6 ef c7 3e c3 cd 17 c1 5f 3a 50 c0
       0.1873999 0.39050168 -9.487735 -3.2535627
000040 f4 ca 93 bf 5e 4a bb bf f3 09 73 bf c2 01 36 40
       -1.1546311 -1.463207 -0.94937056 2.8438573
000050 f8 ff 69 c0 9e 10 bf 40 6e ad c3 3f 68 52 aa 3f
       -3.656248 5.9707785 1.5287302 1.3306398
000060 3d 0a a5 3f a2 96 53 40 3d 6a e4 40 ae 95 53 bf
       1.289375 3.306069 7.1379685 -0.8265027
000070 ab dc 5d 40 39 62 90 3f b6 75 89 40 58 fe 8c c0
       3.4665935 1.1279975 4.295619 -4.406048

build_network/model/stacked_hg/hourglass0/hg_convbottom/inverted_bottleneck/inverted_bottleneck_bottleneck/Conv2D_bias f4 [160]
000000 c5 d0 33 3d a4 01 1d 3e aa d1 5f 3e 80 91 71 3b
       0.04390027 0.15332657 0.21857324 0.0036860406
000010 31 86 18 bd 31 75 bd bd 2e 78 d2 be e6 06 e2 bd
       -0.03723735 -0.09250868 -0.41107315 -0.11036472
000020 83 d6 95 bb 06 72 51 3e e7 b2 aa 3e f7 15 8a 3e
       -0.004572691 0.20453653 0.33339617 0.26969883
000030 7f 1f 28 3e ca a5 2d be 31 aa ec bd 38 bd 00 bf
       0.16418265 -0.16957775 -0.11555899 -0.50288725
000040 36 23 c2 3c 7d b4 ec bd 9a 7c dc bd 11 bf 82 bd
       0.02369843 -0.11557863 -0.10765953 -0.06384099
000050 8c f5 67 3c 0e e3 af be 07 45 03 be 53 1a 41 be
       0.014157664 -0.34352916 -0.128193 -0.18857698
000060 dc 44 5f be 24 29 45 3d 1d 42 2c bc 2e 92 81 be
       -0.21803612 0.048134938 -0.0105138095 -0.2530684
000070 d9 f8 55 3e ce 02 26 3e c5 2a f6 3d fc 53 44 be
       0.20895709 0.16212007 0.120198764 -0.19172662
000080 ae 31 5b 3e 1c de f5 bd ac 68 a4 bd 33 e3 25 be
       0.2140567 -0.120052546 -0.08027777 -0.16199951
000090 4a db b1 3d a0 09 6d bd 94 19 b3 bc ca 36 88 bc
       0.08684404 -0.057870507 -0.021862783 -0.016627688
0000a0 47 8d 1a be 2a 8a 63 3e 15 89 c2 3a 68 e1 02 3e
       -0.15092956 0.22220674 0.0014841879 0.12781298
0000b0 33 df bb bd 39 01 b6 bd 9f 98 b7 bd 34 1c d8 3d
       -0.09173431 -0.08886952 -0.08964657 0.10552254
0000c0 cd 1e 09 3c 5c 15 9a 3e 38 c1 28 bd 87 d0 90 bd
       0.00836916 0.3009442 -0.041199893 -0.070710234
0000d0 86 68 8a bd 25 08 26 3c 3d e2 cb 3d 07 03 76 3e
       -0.067582175 0.010133778 0.09955261 0.24024592
0000e0 5d 3c dc bd 26 9f 0c 3e 3b f4 05 be 2d 11 d8 3d
       -0.10753701 0.13732585 -0.13081448 0.10550151
0000f0 92 b5 31 3e 08 93 59 3e cb 7e b0 3b 79 db 13 3e
       0.1735442 0.21247494 0.0053862086 0.14439191
000100 cd 46 3f bd b6 5c 9e 3d a7 f1 47 be bd 73 48 be
       -0.04669838 0.07732527 -0.19525777 -0.195754
000110 2f da 34 bd 1e 1b 50 3e f5 6c 07 bd 7e bc c1 be
       -0.04415339 0.20322844 -0.033062894 -0.3783912
000120 b4 9a 24 be 9f fd 62 3e 62 c0 33 be 5f 9f 86 3e
       -0.1607464 0.22167061 -0.17553857 0.26293465
000130 4a e6 1a be c3 7a f9 3e fa 9c db 3d 10 19 69 bd
       -0.15126911 0.48726472 0.107233 -0.056908667
000140 97 60 16 3e b5 7b fd be b6 f5 8a 3e 2e 4b 87 3e
       0.14685284 -0.49508443 0.27140588 0.26424545
000150 19 f6 86 bd ed 99 85 3e 43 fe 3f 3e 45 e7 6e be
       -0.06589908 0.26094 0.18749337 -0.2333041
000160 ac 5a 51 be 19 10 36 3d ce 8e 01 bc 92 d5 ec bd
       -0.20444745 0.044448946 -0.007907582 -0.11564173
000170 7d 39 80 be fd 61 ad bd 78 b2 ce 3e 62 1d 0d be
       -0.2504386 -0.084659554 0.40370536 -0.1378074
000180 47 83 99 bd 2b d0 6e 3e 58 8d 4f bd 82 9a 03 be
       -0.07495742 0.23321597 -0.050671905 -0.12851909
000190 1d af 80 3e 17 cb da 3d f4 7b 11 be d4 fb 50 bd
       0.251336 0.106832676 -0.1420744 -0.051021412
0001a0 c4 a1 b6 3d 4c 41 a3 3d 2e 13 46 3c a0 85 9b 3d
       0.08917573 0.07971439 0.012089534 0.07593846
0001b0 17 91 34 3d 53 70 b3 3c 98 a2 88 3e 23 22 00 3e
       0.04408368 0.021904146 0.2668655 0.12513022
0001c0 a3 9a 7d be 8d 94 75 3e a6 a1 83 be ab 58 b2 bb
       -0.2476602 0.23982449 -0.25709265 -0.005442699
0001d0 23 e6 96 3e 32 ea 4b be 17 75 a3 3c fb b8 34 be
       0.29472455 -0.19913557 0.019953294 -0.1764869
0001e0 14 18 5a 3e db 7d 4b be 1c 53 66 3a 3b 26 d4 3e
       0.21298248 -0.19872229 0.0008786188 0.41435418
0001f0 ab f9 62 3d 07 f9 0d 3d 6b 6e e3 3d 01 c9 12 be
       0.055413883 0.03466132 0.11105045 -0.1433449
000200 e7 e3 6f be 54 00 03 bd fd fa 86 3e d7 b8 5f be
       -0.23426782 -0.031982735 0.26363364 -0.21847855
000210 18 aa 33 be 94 cb 7e 3d f5 58 77 3b f9 80 80 3e
       -0.17545354 0.062205866 0.0037742232 0.25098398
000220 5e 47 42 bd 2d 10 95 3e bb d3 88 bc bf 0a 93 bd
       -0.047431342 0.29113904 -0.016702523 -0.07179784
000230 63 42 50 bd 99 2c 04 3e da a0 32 3d ca f0 6a 3e
       -0.05084456 0.12907638 0.04361043 0.22943416
000240 eb f5 c3 3d a1 d4 16 bf 4d 21 05 be 3f 9b 2f be
       0.095683895 -0.58918196 -0.13000984 -0.17149065
000250 09 29 54 3e 7a ef 91 be 16 d4 9e be 0f 2c fc 3d
       0.20718779 -0.2850302 -0.31021184 0.12313091
000260 e8 9f 3c bc b9 0e 1e 3e 02 50 32 3e 82 e6 09 3e
       -0.011512734 0.15435304 0.17413333 0.13466838
000270 eb f8 3e be 78 05 c8 3c 9e f6 45 be 54 4a 0d 3e
       -0.18649642 0.02441667 -0.19332358 0.13797885

build_network/model/stacked_hg/hourglass0/hg_convbottom/inverted_bottleneck/inverted_bottleneck_dwise_conv/depthwise_bias f4 [160]
000000 81 a9 78 3e c2 23 18 bd 63 1c 8f 3e c6 77 4f 3e
       0.2428341 -0.037143476 0.27951345 0.20260534
000010 d4 cd 28 3c 92 37 72 3e 64 a3 83 be b3 b1 3a 3d
       0.0103029795 0.23654011 -0.25710595 0.045579623
000020 52 80 9c 3e 18 0f 83 be ec c6 35 3c 2e d9 21 3e
       0.3056665 -0.25597453 0.01109479 0.15805504
000030 bf 3e ac bd 91 0e 44 3e aa cd 63 bc e4 31 a8 be
       -0.08410405 0.19146182 -0.013904015 -0.32850564
000040 63 0b 76 3e 54 dd 98 3e a4 00 e2 bd 3b f9 bf 3d
       0.24027781 0.2985636 -0.110352784 0.09373709
000050 b6 78 85 be 73 64 82 be 50 59 3e be e2 20 d9 be
       -0.26068658 -0.25467262 -0.18588758 -0.424079
000060 22 81 f9 bd 34 a0 10 3e a5 08 15 3e fe f0 86 be
       -0.12182833 0.14123613 0.14554079 -0.26355737
000070 27 43 ef 3c 0c 5e 28 3e b9 88 37 be 3b ef 32 3b
       0.029206825 0.16442126 -0.1792325 0.0027303237
000080 83 4c 59 be 98 85 11 3d 05 a5 7b bd b2 58 dc bd
       -0.21220593 0.035527796 -0.06143667 -0.10759105
000090 b1 f3 0b bb 6f c3 7f 3c 00 bd 00 3e 22 bf df 3d
       -0.0021354968 0.01561056 0.12572098 0.109251276
0000a0 1b cc 95 be 27 c2 94 bb 5a 17 a5 3e 94 c0 f1 3d
       -0.29257283 -0.0045397463 0.32244378 0.118043095
0000b0 38 10 b5 3d 0e e5 cc bd 45 5d 86 be f4 af 5e 3e
       0.08840984 -0.10004626 -0.26243034 0.21746808
0000c0 c4 2f bd bd 9a 4b 59 3d 4d 72 37 be 02 cb ad 3e
       -0.09237626 0.053050615 -0.17914696 0.33943945
0000d0 04 6f 0a be fe 8c 40 be 89 c0 eb ba f2 f3 8b be
       -0.13518912 -0.18803784 -0.0017986457 -0.27334553
0000e0 7b a4 e7 3d 99 56 0f 3e 54 69 1f be b5 00 e3 bd
       0.11310669 0.13997878 -0.15567523 -0.11084119
0000f0 65 3a 5e be 61 b0 25 be b8 3f a3 be a3 63 92 3c
       -0.21701963 -0.16180564 -0.3188455 0.017869776
000100 2f 5d 2d 3e a7 74 8c be b3 91 33 be 73 b8 9b 3e
       0.16930078 -0.2743275 -0.17536049 0.3041416
000110 eb d7 30 be 15 98 5a be db 09 9a 3e 4e c7 6b bd
       -0.17269866 -0.21347077 0.30085644 -0.05756312
000120 87 e0 7b be 92 d2 b4 be 1b 3a 77 be 10 e8 8f 3e
       -0.24597369 -0.35316902 -0.24143259 0.28106737
000130 99 2f 4e 3d 1a d8 e0 3e 9d a2 9a bc 2d eb db 3d
       0.05033836 0.43914872 -0.018876368 0.107382156
000140 45 d0 7e bd 64 9c 66 be 92 8b 4f 3e 99 f9 fe 3d
       -0.06221034 -0.22520596 0.20268086 0.12449951
000150 58 db e8 bd 5f 55 1f 3e 49 5b 36 3d 24 97 76 bd
       -0.113699615 0.1555991 0.04452065 -0.060202733
000160 8a 70 bf bd 38 d6 fa bd de 54 63 3d 6a 65 f7 3d
       -0.09347637 -0.1224789 0.055500858 0.1207989
000170 15 d4 0b be 9b 7c 02 be ff d4 20 3e c0 12 4c 3e
       -0.13655122 -0.12742846 0.15706252 0.19929028
000180 89 65 8d be e3 d4 8c bc 2e a5 ed bd ae 04 ff 3d
       -0.27616528 -0.017191356 -0.11603771 0.124520645
000190 ca 1e da bd 3c b3 44 3e a4 a9 83 3d ae dd 5d 3e
       -0.10650404 0.19208997 0.06428841 0.21666595
0001a0 3b 1b 78 bd a2 64 89 3d d1 87 39 3d be da 3f be
       -0.060572844 0.06708647 0.04529554 -0.18735787
0001b0 eb 10 95 be 4f 3e 94 3e 4e 67 35 ba 85 51 1e bd
       -0.2911447 0.28953788 -0.00069199956 -0.03865196
0001c0 51 06 a9 3d 1a 42 5e be fa 56 a2 bd 9d d4 07 3e
       0.08253158 -0.21704903 -0.07926746 0.132647
0001d0 2f 70 0d be ed 13 3f bd 4a da 0b 3c ce 92 3b be
       -0.13812326 -0.046649862 0.008535931 -0.1831772
0001e0 2a 12 5b 3e 34 bd 5f be 91 1d 5b 3e e4 56 a7 bd
       0.21393648 -0.21849519 0.21397997 -0.0817087
0001f0 15 5e b9 bd 49 68 67 3e 30 6f b8 3c 00 ae be be
       -0.09051148 0.22598375 0.022513956 -0.37242126
000200 e4 90 44 be 97 11 6d be c7 e2 69 bd 8d da bd bd
       -0.19195896 -0.23151241 -0.057101037 -0.09270201
000210 a1 c8 98 3d cc 28 fd bc cc 03 a1 bc 59 64 81 be
       0.07460142 -0.030903243 -0.01965513 -0.25271872
000220 da ea 3f bd 53 11 34 3e 0b 63 72 be cd ec f6 3d
       -0.04685483 0.17584734 -0.23670594 0.12056885
000230 70 16 6a bd a9 e7 f3 3d 29 33 fb 3d d5 a5 34 3e
       -0.057150304 0.1190942 0.122656174 0.17641385
000240 47 8a c2 3d 64 01 d5 be 5f b3 08 3b 93 c6 9d be
       0.094990306 -0.41602623 0.0020858867 -0.30815563
000250 8e 1b 30 3e a9 ad 0e 3e fe 24 38 be b6 34 21 3d
       0.17198011 0.13933434 -0.17982861 0.03935691
000260 e8 e3 a8 be b0 93 4e 3d e5 76 20 3e 51 6f df 3d
       -0.3298638 0.050433815 0.15670355 0.10909904
000270 78 32 63 bd d6 5a 6d be 73 b3 4f 3e 88 7a 0a 3e
       -0.055468053 -0.23179182 0.20283298 0.13523304

build_network/model/stacked_hg/hourglass0/hg_convbottom/inverted_bottleneck/inverted_bottleneck_pwise_conv/Conv2D_bias f4 [32]
000000 74 11 b5 bd b0 da 7e 3f 57 99 0b c0 14 27 47 bf
       -0.088412195 0.9955244 -2.1812341 -0.77794003
000010 81 cc 61 3f 7e 56 12 c0 85 b8 97 40 f3 0b f5 3c
       0.88202673 -2.286529 4.7412744 0.029912924
000020 d3 48 84 c0 93 44 c4 3e 42 d1 4c c0 ec 9d e2 bf
       -4.1338897 0.38333568 -3.200272 -1.7704444
000030 97 51 55 c0 2c 84 93 3f ee b7 aa bf 08 e8 5b 40
       -3.3331048 1.1524711 -1.3337381 3.436037
000040 36 2a 61 40 f7 22 98 3d 4f b3 84 3f bc fe 30 40
       3.5182014 0.07428544 1.0367221 2.7655478
000050 16 76 6f 40 57 dc c2 3f ed 72 08 c0 24 39 6a 40
       3.7415824 1.5223492 -2.1320145 3.6597376
000060 f3 f5 04 c0 50 93 3d bf 8d fe 85 40 85 82 ea bf
       -2.0775115 -0.74052906 4.187323 -1.8321081
000070 39 49 fb 3f 6d 00 79 40 85 0e 3c 40 fe ed e5 bf
       1.9631721 3.890651 2.9383862 -1.7963254

build_network/model/stacked_hg/hourglass0/hg_deconv0/bilinear_resize_inverted_bottleneck/bilinear_resize_inverted_bottleneck_bottleneck/Conv2D_bias f4 [160]
000000 90 87 96 3e 9a 5e 0a be 45 61 54 3e 4b 4d 4c be
       0.294003 -0.1351265 0.2074023 -0.1995136
000010 cc 88 02 bd 11 8f ca bd f2 2a d7 3b 48 98 b8 3e
       -0.03186874 -0.09890569 0.006566399 0.3605368
000020 67 0d a8 bc 9a 43 08 3e da d4 9c 3c f9 eb cb 3c
       -0.020514203 0.13307038 0.019144464 0.024892794
000030 00 51 5a 3e 90 0f 8b bd b3 15 94 bd 83 35 b2 3d
       0.21319962 -0.06790078 -0.07230701 0.08701613
000040 05 1b 81 be 99 45 92 be 2c 9b f8 3c 15 cf 06 be
       -0.25215927 -0.28568724 0.03034743 -0.13164933
000050 73 11 85 be 7d f5 b0 be d5 b8 a2 be 03 dd ea 3e
       -0.25989875 -0.34562293 -0.3178164 0.45871744
000060 f1 2f 9e 3d 60 80 1f bd d0 61 95 bd 6a 47 53 bd
       0.07723988 -0.038940787 -0.07294047 -0.051581778
000070 dc 93 23 bb 0c 73 80 3e 4b 7d 2b be f3 5e 08 be
       -0.0024959957 0.25087774 -0.16747014 -0.1331747
000080 02 e0 a7 bd 94 72 89 be eb 07 b0 be b2 b2 12 3d
       -0.08197023 -0.2684523 -0.3438104 0.03581495
000090 01 88 8d 3e 5c d8 90 3c f2 2b af 3d 46 b9 d3 3d
       0.27642825 0.017681293 0.08553304 0.103380725
0000a0 b9 07 a4 3d 5c 9f 31 be 99 ae 39 3e 94 fb 1d bf
       0.080092855 -0.17345947 0.1813301 -0.61712
0000b0 85 b1 11 3e 05 54 08 bf 36 fe a6 be eb 99 eb bd
       0.14227875 -0.53253204 -0.32615823 -0.11503967
0000c0 6f c7 3a bd d9 93 d1 3d 1a f6 0d be 23 94 43 3e
       -0.04560035 0.10233278 -0.13863412 0.19099478
0000d0 ff 04 d4 3e 7f de 28 3e da 53 11 3e a1 52 c6 3d
       0.41410062 0.16491126 0.14192143 0.09683729
0000e0 f1 a0 01 be c1 db 33 3c fb 59 27 3e 36 b6 51 bd
       -0.1265905 0.010977686 0.16342919 -0.05119916
0000f0 45 ea 5d be 25 0c 07 3e 1d 03 24 3e ae 5f b4 3e
       -0.21671398 0.13188227 0.16016813 0.35229248
000100 9f df 88 be 4a 36 11 3f 9f 89 0b bf 5b db ce bd
       -0.2673311 0.56723464 -0.5450687 -0.101004325
000110 06 9e 5e be c4 c0 8c be 55 94 3c be 3e 44 06 3d
       -0.21739969 -0.27490819 -0.18415959 0.032779925
000120 19 e1 2a be 06 ff 0c 3e 0d fd 29 bc d7 cb ed be
       -0.1668743 0.13769159 -0.010375273 -0.4644458
000130 44 02 f3 3b 1f e0 14 3f 88 84 b1 be 13 ee dc be
       0.0074160416 0.5815448 -0.34671426 -0.43150386
000140 e3 df fe be 02 aa d6 be 7e 16 1a be 79 10 1d 3e
       -0.49780187 -0.4192658 -0.15047643 0.15338315
000150 55 9c a4 3b ec 1a c2 bd d3 b3 f7 3c 6f b8 35 be
       0.005023519 -0.09477791 0.030237114 -0.17746137
000160 02 3c 69 be 66 da 03 bf bc 24 2d 3e b1 82 48 be
       -0.22776797 -0.51505125 0.16908544 -0.19581105
000170 42 da 5b 3e 5b 2b 06 3e d5 73 99 3e 29 f2 af 3c
       0.21469977 0.13102476 0.29971185 0.021477776
000180 97 19 86 3e 16 94 9d be c6 f2 61 bd 7f bf 92 bd
       0.26191399 -0.30777043 -0.055163167 -0.07165431
000190 e9 63 2b be 19 8e 29 3d b3 53 0f 3e 53 3c 4e bd
       -0.16737331 0.04139528 0.13996772 -0.0503505
0001a0 16 04 3a 3e 90 43 93 3e 67 a6 52 be b2 13 5d 3d
       0.18165621 0.28762484 -0.2057129 0.05397386
0001b0 94 34 6e 3e 0e d7 c0 bd fb 17 88 3e ab 39 57 bb
       0.23262244 -0.094160184 0.26580796 -0.003284077
0001c0 34 7a 21 be 1d f2 33 be 2c c5 a3 3e 35 82 cb 3d
       -0.15769273 -0.17572828 0.31986368 0.099369444
0001d0 72 1b 1b 3e 4d a6 4e be 51 78 0e be 16 ab 30 3c
       0.15147188 -0.20180626 -0.13913085 0.010782978
0001e0 4e d1 1a be e6 00 2e 3e 79 a0 96 bc 19 21 1d 3b
       -0.15118906 0.1699253 -0.018387066 0.0023976027
0001f0 9d 83 7e be eb 23 be be 2b f4 be bc a7 de 06 bd
       -0.24854894 -0.37136778 -0.023309788 -0.03292718
000200 7e 6a b1 3e 75 dc c8 3e 95 5e c9 3d a4 4c 5a be
       0.3465156 0.39230695 0.09832493 -0.21318299
000210 2f b6 ad bd e8 ff a1 3c c1 21 78 be 3a f3 c4 bc
       -0.084820144 0.019775346 -0.24231626 -0.02404176
000220 6b 7e 23 3f c4 36 e9 3c 88 04 73 3d d4 10 b2 3e
       0.63864774 0.028468497 0.059330493 0.34778464
000230 7c 71 ad 3d 02 21 fa 3e 76 ca d0 bd 8b 06 ed 3e
       0.08468911 0.48853308 -0.10194866 0.46294054
000240 f9 f1 b9 3e 73 89 59 3d 11 e4 8c 3c 1f 43 06 3f
       0.36317423 0.053109597 0.017198594 0.5244617
000250 ea 5a 97 3d 4f 76 50 3c 00 a2 43 3e 47 10 97 be
       0.07390387 0.0127235195 0.19104767 -0.29504606
000260 c1 1f 03 3e d7 42 e2 3d 11 55 87 be 55 49 eb 3c
       0.12805082 0.11047905 -0.26432088 0.02872149
000270 ff 53 93 3e 5e bb 3b bc cd 0c 9c 3d 41 7f 78 3e
       0.2877502 -0.011458246 0.07619629 0.24267294

build_network/model/stacked_hg/hourglass0/hg_deconv0/bilinear_resize_inverted_bottleneck/bilinear_resize_inverted_bottleneck_dwise_conv/depthwise_bias f4 [160]
000000 20 b3 62 3e d7 5b 4d be 33 01 3f 3d d9 67 ef 3e
       0.22138643 -0.20054565 0.046632003 0.46758917
000010 dd 37 7c bd be 11 35 be 6d 03 7f bc b2 8f d1 3d
       -0.061576713 -0.1768255 -0.015564782 0.10232486
000020 3d 56 0c 3c de 4e c8 3d a7 8c a6 3e cf 9e ab 3e
       0.008565483 0.09780668 0.32529184 0.335196
000030 1c 05 db 3e c2 2d c6 3e 95 ee a5 bd 9e 3f f3 bd
       0.42777336 0.38706785 -0.081021465 -0.118773684
000040 72 6c 24 be 1d 28 99 be 41 13 c8 3e bb 27 23 be
       -0.16056994 -0.29913417 0.3907719 -0.15933125
000050 df 0f a6 3e 63 f1 85 bd bb 49 40 bd 31 f1 ce bd
       0.32433984 -0.065401815 -0.046945315 -0.10104597
000060 3e d8 0e be d5 0f c5 bd 32 c3 ad be bd b9 14 3e
       -0.13949677 -0.0962216 -0.33937985 0.14523979
000070 f8 56 09 bd 7e ea a0 3c 4c 47 db 3d 83 e7 ce bd
       -0.033530205 0.019643065 0.10706958 -0.10102751
000080 d0 90 80 3c d3 57 97 be 5a f7 5e be e5 c0 81 be
       0.015694052 -0.29559192 -0.21774045 -0.2534248
000090 f9 ac 83 3e 26 b0 f9 bd 04 a2 0f 3e ab 81 fe 3d
       0.25717905 -0.12191801 0.14026648 0.12427076
0000a0 3d 6b 1a be eb 75 b5 bd a8 96 f1 3d fc 55 f3 3e
       -0.1507997 -0.08860382 0.117963135 0.47526538
0000b0 2c 9b 8c 3e e7 e3 b2 bc bf 5f 36 be 3c f4 07 3d
       0.27462137 -0.021837188 -0.17809962 0.033191904
0000c0 46 f1 15 bc d9 d4 17 be 07 27 8d 3e 43 f3 4f 3e
       -0.009151762 -0.14827289 0.27568838 0.2030764
0000d0 ac e7 2a 3e da 7d 0f 3e 0e 47 94 3e fe ba aa bd
       0.16689938 0.14012852 0.2896046 -0.08336447
0000e0 1a 33 0a be 62 38 0e bd 5c 6d e4 3d 0f c4 8f 3c
       -0.13496056 -0.03472174 0.11153671 0.017549543
0000f0 fb fa df 3d 21 61 7d 3d ed 51 25 3e 9c d3 bf 3e
       0.109365426 0.061860207 0.16144533 0.37466133
000100 55 a1 81 be 5b 82 d3 bb ef 90 7d be 08 4a 29 bd
       -0.253184 -0.0064547486 -0.24762319 -0.041330367
000110 4a 0f 54 3e 7f aa 4e bd 5d 24 6e 3e a8 50 b8 3d
       0.20708957 -0.050455566 0.23256059 0.08999759
000120 e2 f4 86 be 56 4c c3 3d 27 a1 5d 3a f7 7b 9d be
       -0.26358706 0.09536044 0.00084544945 -0.3075864
000130 63 2d 38 be b5 ea 19 be 0d 75 62 bd 13 7f 21 3e
       -0.17986064 -0.1503094 -0.05528741 0.15771131
000140 4c f4 af be f0 85 10 bf ec 87 cd bd 24 66 a9 3d
       -0.3436607 -0.5645437 -0.10035691 0.08271435
000150 05 6d 04 be a0 c0 b6 3d 14 98 e1 3d ba 32 c7 bd
       -0.12932213 0.08923459 0.11015335 -0.09726472
000160 8a 3f 12 3f a6 c1 0a 3f f0 05 81 3e f8 56 19 be
       0.571282 0.54201734 0.25199842 -0.14974582
000170 ff ba c0 3d 84 18 75 3e 3c 9e 13 3e 1a da 1f be
       0.09410667 0.23935133 0.1441583 -0.15610543
000180 eb 56 60 3e c2 af 93 be ed 08 32 bd b5 fd 80 3e
       0.21908157 -0.2884503 -0.043465544 0.25193563
000190 f6 4b 71 3e 30 4d 0b be 69 d8 b6 3e cd 86 a6 3c
       0.23564133 -0.13603663 0.35711983 0.02032795
0001a0 ce a3 4d 3e 1e 81 be 3e ce ec 59 bc 77 47 2a 3e
       0.20082018 0.37207884 -0.013301088 0.16628824
0001b0 60 c4 9f 3d 4b 65 3d be 06 63 8f 3d 48 61 88 bd
       0.078011274 -0.18495671 0.07001309 -0.0665918
0001c0 37 84 03 3d 20 b8 35 bd bf 21 91 3e f3 d0 89 3d
       0.03210851 -0.04436505 0.2834606 0.06729307
0001d0 75 31 e4 bb 6d c2 69 be 14 69 52 bb 37 e7 d3 3d
       -0.0069639036 -0.22828074 -0.0032106088 0.10346835
0001e0 8d cd 2e 3d fd 52 15 3e 0d 6b d0 3c 15 2d 56 be
       0.042676497 0.14582439 0.02544167 -0.20915635
0001f0 d7 5e 53 be ed 4d bf be f5 61 9f bd 58 68 82 3e
       -0.20641647 -0.3736414 -0.07782356 0.25470233
000200 06 69 a6 bb b3 20 07 be d1 9d 57 3b 5d 47 19 be
       -0.0050784377 -0.13196068 0.0032900462 -0.14968629
000210 fc e0 f1 bd f1 18 2a 3e 46 33 03 be ae b3 28 be
       -0.118104905 0.16611077 -0.12812528 -0.16474792
000220 69 c3 6c 3a d5 1e 6d 3e 9e 5d 8f bd 6d 62 78 3e
       0.0009031804 0.23156293 -0.07000278 0.24256296
000230 c5 9e 54 3d 44 c3 89 3d 67 70 96 be 21 2f f2 3e
       0.051909227 0.06726697 -0.2938263 0.47301582
000240 df 33 c8 3d 5d 8e 31 3e da 98 3a bd 83 3d 98 3d
       0.097755186 0.17339464 -0.045555927 0.074336074
000250 5c 9a 5c 3e 0a cc 4d 3e 32 97 8c 3e 73 72 88 be
       0.21543258 0.20097366 0.27459103 -0.26649818
000260 35 27 81 3d 19 f3 09 bd 89 8a 79 be 48 b1 b0 3d
       0.06306306 -0.0336791 -0.24369253 0.08627564
000270 a5 42 fb 3d 65 07 87 bc 31 f6 d0 3c 9c 8d 8f 3e
       0.12268571 -0.016483018 0.025508018 0.28037727

build_network/model/stacked_hg/hourglass0/hg_deconv0/bilinear_resize_inverted_bottleneck/bilinear_resize_inverted_bottleneck_pwise_conv/Conv2D_bias f4 [32]
000000 52 58 bf bf 12 13 68 3e 09 ea 9f bf b2 e2 5e 3f
       -1.4948828 0.22663525 -1.2493297 0.8706466
000010 f2 7b 10 3d 48 50 62 bf 09 ea 47 c0 e8 f5 3c 3f
       0.035274453 -0.8840375 -3.1236594 0.73812723
000020 20 69 1c 3e c0 d6 3a be f6 09 93 40 60 fa 5e 40
       0.15274477 -0.18245983 4.594966 3.4840317
000030 f2 ad 7b bf f2 03 19 40 a0 90 80 c0 24 42 9e 3f
       -0.98312294 2.3908658 -4.0176544 1.2363935
000040 9a 61 84 bf 72 dc 71 3f 1d f5 6e 3f 85 5b 4a 3e
       -1.0342286 0.94477 0.93342763 0.19761474
000050 6c bc 83 bf 58 4c a2 bf f5 e5 6b bf 4f 9b b4 3f
       -1.0291877 -1.2679548 -0.9214776 1.4109896
000060 87 ff 00 40 51 06 55 3f 16 3f 95 3f 27 3e 27 c0
       2.0155962 0.83212763 1.1659877 -2.6131685
000070 e2 00 c2 3f 00 72 31 c0 45 04 57 40 62 e6 1d 40
       1.515652 -2.772583 3.3596356 2.4671865
