release/model_246kb.tflite (tflite, 245616 bytes, 100 tensors)

build_network/model/output/output/output_conv1x1_out/Conv2D_bias f4 [4]
0	0xbe928f68	-0.28625035
1	0xbf04b844	-0.5184367
2	0xbebe79ae	-0.3720221
3	0xbe255b00	-0.16147995

build_network/model/reception/reception/reception_conv7x7_out/Conv2D_bias f4 [16]
0	0x3f298b7c	0.6622846
1	0x3fc886d8	1.5666151
2	0x4004b547	2.0735643
3	0xbf9cd66d	-1.2252938
4	0x40024cd6	2.0359397
5	0x3fd0de3c	1.631782
6	0x4009237c	2.1427908
7	0xc016c0fd	-2.355529
8	0x4010df5a	2.2636323
9	0x40068d4c	2.102374
10	0xbf9f6ae2	-1.2454493
11	0xbfe91ed2	-1.8212531
12	0xc009a4ee	-2.1506915
13	0x4002c149	2.0430472
14	0xbfdc3faf	-1.7206935
15	0xbf82ba88	-1.0213175

build_network/model/reception/reception/reception_receptconv0/inverted_bottleneck/inverted_bottleneck_bottleneck/Conv2D_bias f4 [80]
0	0xbd5f84d8	-0.05457005
1	0xbe9b5512	-0.3033834
2	0xbddc0260	-0.107426405
3	0x3c01e57a	0.007928247
4	0xbe09d969	-0.13461842
5	0x3e0f868b	0.14016168
6	0x3e5eaa4a	0.21744648
7	0xbd521a7f	-0.0512948
8	0x3e169d1c	0.1470837
9	0xbcfeab37	-0.031087501
10	0x3d8b2e72	0.06795968
11	0x3e21915f	0.15778111
12	0x3d38d098	0.045120806
13	0xbdb1bfce	-0.08679162
14	0x3e257b07	0.16160212
15	0x3cfd4bab	0.03091987
16	0xbc732a3e	-0.014841614
17	0x3e1554c3	0.14583115
18	0x3e540814	0.20706207
19	0xbe57d4c0	-0.21077251
20	0xbcb76100	-0.02238512
21	0x3d22aaa0	0.039713502
22	0xbdae7d76	-0.085200235
23	0x3d11bb80	0.035579205
24	0x3dfa7b44	0.12230542
25	0xbdc2c516	-0.095102474
26	0x3e624de8	0.22100031
27	0x3e9b48a3	0.30328855
28	0xbdfc1971	-0.1230954
29	0xbd385988	-0.04500726
30	0x3d65cf58	0.05610594
31	0xbd76dc22	-0.06026853
32	0x3db38f75	0.08767597
33	0x3e8e5453	0.2779871
34	0xbe6e7b4b	-0.2328922
35	0xbe86e06d	-0.26343098
36	0x3db85e98	0.09002417
37	0xbe8a403f	-0.2700214
38	0xbd0dfdd8	-0.034665912
39	0xbd421523	-0.04738344
40	0x3dfbcf16	0.12295358
41	0xbe968df8	-0.2940519
42	0x3e532326	0.20618877
43	0xbd7d98dc	-0.061913356
44	0x3da49ca1	0.08037687
45	0xbe8a72cd	-0.2704071
46	0x3e440fb8	0.19146621
47	0xbe255a27	-0.16147672
48	0xbc8dd22e	-0.017312136
49	0x3e682ac4	0.22672564
50	0xbeced019	-0.4039314
51	0x3c64c6b4	0.01396339
52	0xbed0caf8	-0.40779853
53	0x3dc4fbac	0.09618315
54	0xbda97000	-0.082733154
55	0xbe0e3f21	-0.1389127
56	0xbe2463a5	-0.16053636
57	0xbd7d5b98	-0.06185493
58	0xbcd0f7db	-0.025508812
59	0x3e44d71e	0.19222686
60	0xbe51b504	-0.20479208
61	0xbe866f8b	-0.26256976
62	0xbda8a249	-0.082340784
63	0x3da5584f	0.08073484
64	0x3dcebb4b	0.10094317
65	0x3cc4e446	0.02403463
66	0x3e3268df	0.17422818
67	0x3df87a93	0.12132754
68	0x3d7678ef	0.060173925
69	0x3d4f5061	0.050613765
70	0x3e15954c	0.14607733
71	0x3c1e1c81	0.009650351
72	0xbe4b5524	-0.19856697
73	0x3d85ed0a	0.06539352
74	0xbcca1100	-0.02466631
75	0xbd8ca921	-0.06868196
76	0x3c93fc0c	0.018064521
77	0x3e641ac8	0.22275841
78	0x3e38a7e2	0.18032792
79	0xbc232e57	-0.009959779

build_network/model/reception/reception/reception_receptconv0/inverted_bottleneck/inverted_bottleneck_dwise_conv/depthwise_bias f4 [80]
0	0xbc7adca1	-0.015311391
1	0xbea73691	-0.32658818
2	0x3da15393	0.07877269
3	0x3ec2a09f	0.3801317
4	0x3e83491e	0.2564172
5	0x3d599761	0.05312288
6	0xbdb5d607	-0.08878713
7	0x3dd5d9e4	0.1044195
8	0x3e13a37e	0.14417836
9	0xbddd855a	-0.108164504
10	0xbd9c841d	-0.07642386
11	0x3d9e47f0	0.07728565
12	0x3e80258e	0.25028652
13	0x3d60cb85	0.05488159
14	0x3e05caac	0.13065594
15	0xbd1ec962	-0.038766272
16	0xbcc1dfba	-0.023666251
17	0x3eb0fe7c	0.34569156
18	0x3dacdcf2	0.084405795
19	0x3d0f7de6	0.035032175
20	0x3d2d5447	0.0423167
21	0x3e4567cc	0.19277877
22	0x3d4db96c	0.05022566
23	0x3e109490	0.14119172
24	0x3dfacea4	0.12246445
25	0x3dbd0fe3	0.09231546
26	0x3e2d8bcc	0.1694786
27	0x3e2496b4	0.16073114
28	0x3cd14f04	0.025550373
29	0x3cd8ff5a	0.026488949
30	0x3e61e2c3	0.22059159
31	0xbd2fbd11	-0.042904917
32	0x3d6ca1b5	0.057771403
33	0x3e2b80b2	0.16748312
34	0xb9bb007a	-0.00035667775
35	0xbd9650bb	-0.07339617
36	0xbd040d84	-0.032239452
37	0xbe213b59	-0.15745296
38	0xbe5bb78b	-0.21456735
39	0xbe1243bb	-0.1428365
40	0x3c2fb700	0.010724783
41	0xbdfdf968	-0.12401086
42	0x3e24d5c9	0.16097178
43	0x3e30ae7d	0.17254062
44	0x3db3ecc0	0.08785391
45	0xbd974e7d	-0.07388017
46	0x3dacf1ac	0.08444533
47	0xbd32fdfd	-0.043699253
48	0x3c2ebdf0	0.010665402
49	0x3e068fbb	0.13140766
50	0xbe7697db	-0.24081366
51	0x3cd369ad	0.025807226
52	0xbe8d8b86	-0.2764551
53	0x3e160f64	0.14654309
54	0xbdb93d7b	-0.090449296
55	0x3e0ab18f	0.13544296
56	0xbd29d6a2	-0.041464455
57	0xbd91b09c	-0.07113764
58	0x3c494a72	0.012285816
59	0xbd0df19f	-0.034654256
60	0x3d5b4dcf	0.053541
61	0xbe84cb28	-0.25936246
62	0xbdd99c87	-0.10625558
63	0xbc597582	-0.013272645
64	0x3d03c8d5	0.03217395
65	0x3cdc34c1	0.026880624
66	0xbddfcd20	-0.10927796
67	0xbce8f5a2	-0.02843744
68	0x3dbbdc4a	0.09172876
69	0xbd35d174	-0.044389203
70	0x3cffba8a	0.031216878
71	0x3e0e767c	0.13912386
72	0x3e434c32	0.19072035
73	0xbd674f8c	-0.056472346
74	0x3dd62a11	0.10457242
75	0xbd94b547	-0.072611384
76	0xbd3082b5	-0.043093402
77	0x3e25bc81	0.1618519
78	0x3dee9bcd	0.116508104
79	0xbb8b3776	-0.004248555

build_network/model/reception/reception/reception_receptconv0/inverted_bottleneck/inverted_bottleneck_pwise_conv/Conv2D_bias f4 [16]
0	0x403b9e77	2.931547
1	0xc07086d6	-3.7582297
2	0x3f8fb4fa	1.1227105
3	0xbfc1af22	-1.5131571
4	0x4015ed8a	2.3426232
5	0xc02faf14	-2.745061
6	0x402b2adb	2.6744907
7	0x3fbd63d3	1.4796089
8	0xbf6c9ae4	-0.92423844
9	0xc03347ed	-2.801265
10	0x402678af	2.601116
11	0xbc555f52	-0.013023214
12	0x3fc096b2	1.5045989
13	0xc06f1ca3	-3.7361228
14	0x40372d38	2.862135
15	0x3faefc4e	1.3670747

build_network/model/stacked_hg/hourglass0/hg_conv0/inverted_bottleneck/inverted_bottleneck_bottleneck/Conv2D_bias f4 [80]
0	0xbdff7e84	-0.12475303
1	0x3e103117	0.14081226
2	0xbc0ae3fc	-0.008477207
3	0xbbdb695d	-0.00669591
4	0xbe058f97	-0.13043056
5	0xbd80ae4e	-0.06283246
6	0x3d233aa7	0.039850857
7	0xbd24dd7e	-0.040250294
8	0x3e089e66	0.13341674
9	0xbe041184	-0.12897307
10	0xbe7d7952	-0.24753311
11	0x3e440b80	0.19145012
12	0x3eb8d99a	0.36103517
13	0x3de3915d	0.1111171
14	0x3e784724	0.24245888
15	0x3e0fbe30	0.14037395
16	0xbec4b941	-0.38422588
17	0x3dbd3324	0.0923827
18	0xbd830838	-0.06398052
19	0xbe31cc84	-0.17363173
20	0xbd93b858	-0.07212895
21	0x3e858adc	0.26082504
22	0xbea5b30c	-0.32363164
23	0x3e227d7e	0.15868184
24	0xbe21b800	-0.15792847
25	0x3d5e1099	0.054215048
26	0x3d05e7b4	0.032691672
27	0x3cd1829e	0.025574978
28	0x3d921f6c	0.071348995
29	0x3dc004ce	0.093759164
30	0xbe8778df	-0.26459405
31	0x3ec2177a	0.37908536
32	0x3e2b32ef	0.16718648
33	0xbd09ffcf	-0.033691224
34	0x3e778bdf	0.2417445
35	0x3dd5869b	0.104260646
36	0xbe5e90d3	-0.21734934
37	0xbc8ddd14	-0.017317332
38	0x3da31040	0.07962084
39	0xbe75f37d	-0.24018665
40	0x3d90bec0	0.07067633
41	0xbe4dc861	-0.2009597
42	0xbe6d260d	-0.23159046
43	0xbde9e542	-0.114206806
44	0xbd1f70a8	-0.038925797
45	0x3ebca45f	0.36844155
46	0xbd24071c	-0.040045843
47	0x3ee580c0	0.4482479
48	0x3d702a48	0.058634073
49	0xbe89f35b	-0.26943478
50	0xbe6fa84d	-0.23404045
51	0x3e790739	0.24319161
52	0x3e228f7e	0.1587505
53	0xbc8c78de	-0.017147478
54	0x3d1df08d	0.038559485
55	0x3dbf2325	0.09332875
56	0xbed020b5	-0.40649953
57	0x3e2aaa9f	0.1666665
58	0x3d12ec3d	0.035869826
59	0xbf5c6e92	-0.86106217
60	0x3e8e36a6	0.27776068
61	0xbe79d21d	-0.24396558
62	0x3e7b63f5	0.2454985
63	0xbdd4b72f	-0.10386502
64	0x3e02d8c5	0.12778004
65	0x3de67864	0.112534314
66	0x3c5ffbcf	0.013670876
67	0x3eb318ea	0.34979945
68	0xbdca5f02	-0.098814026
69	0xbde49507	-0.11161237
70	0x3f189e9c	0.5961702
71	0xbe71050f	-0.23537086
72	0x3ddafecc	0.1069313
73	0xbe314ffe	-0.17315671
74	0x3e6151e7	0.220039
75	0xbd83ff7d	-0.06445215
76	0xbe4326c9	-0.19057764
77	0xbe001c42	-0.1251078
78	0x3cbb6865	0.022876928
79	0x3d86e60f	0.06586849

build_network/model/stacked_hg/hourglass0/hg_conv0/inverted_bottleneck/inverted_bottleneck_dwise_conv/depthwise_bias f4 [80]
0	0xbd903489	-0.0704127
1	0x3f077e5c	0.52927184
2	0x3e5b8d2c	0.21440572
3	0x3cf21c36	0.029554468
4	0x3f01befc	0.50682044
5	0x3e62d4d4	0.221515
6	0x3eaf5fee	0.34252876
7	0x3d858e9f	0.065213434
8	0x3e050fce	0.1299431
9	0x3e312d92	0.1730254
10	0xbe749bca	-0.23887554
11	0x3dca8224	0.098881036
12	0x3e5ce74c	0.21572608
13	0xbd705e5b	-0.058683734
14	0x3e4c5468	0.19954073
15	0x3e0540e5	0.13013037
16	0xbd6d1966	-0.05788555
17	0x3c4fad1a	0.012675548
18	0x3e2d7e1d	0.1694264
19	0x3e0cf803	0.13766484
20	0x3cfd6dd5	0.030936161
21	0x3e26ea21	0.1630025
22	0x3ddb802d	0.10717807
23	0x3e18a259	0.1490568
24	0x3e967d6b	0.2939256
25	0x3e1bb926	0.15207347
26	0x3e52a620	0.20571184
27	0x3eb63451	0.3558679
28	0x3dafd957	0.08586376
29	0x3e59e1bb	0.21277516
30	0x3de1ea9c	0.11031076
31	0x3e969132	0.2940765
32	0x3db4668c	0.08808622
33	0x3f0fd55b	0.5618493
34	0x3ed4f24e	0.41591114
35	0x3e1e7c05	0.15476997
36	0xbd75287f	-0.059853073
37	0xbd16d7f1	-0.03682703
38	0x3e6faa33	0.2340477
39	0x3ea9e074	0.33179057
40	0x3e7deb87	0.24796878
41	0x3f03c3f2	0.51470864
42	0xbdd2008e	-0.10254012
43	0xbba3e566	-0.0050017117
44	0xbd940be7	-0.07228833
45	0x3e88a7d9	0.26690558
46	0x3e36c0e3	0.17847018
47	0xbd8bde33	-0.068294905
48	0xbd702c3f	-0.058635946
49	0x3dbd4ac5	0.09242777
50	0x3e0f3311	0.13984324
51	0xbd870a19	-0.06593723
52	0x3d90d397	0.070716076
53	0x3f076dea	0.5290209
54	0x3e814f93	0.25256023
55	0x3d358909	0.04432014
56	0xbd7922d2	-0.060824223
57	0x3e3f9fdb	0.18713324
58	0x3e5b1406	0.21394357
59	0xbf16e228	-0.5893884
60	0x3d709a1e	0.058740728
61	0x3de6578a	0.112471655
62	0x3eff689f	0.49884507
63	0x3e99acb5	0.30014578
64	0x3e747d8e	0.2387602
65	0x3e50a115	0.20373948
66	0x3e814b13	0.2525259
67	0x3eb9622a	0.36207706
68	0x3e5b24a2	0.21400693
69	0x3dab8344	0.08374646
70	0x3e96cedf	0.29454705
71	0x3d49c8bf	0.049263712
72	0xbbcbd19f	-0.006220057
73	0x3e117978	0.14206493
74	0x3e2d3980	0.16916466
75	0xbd2f923b	-0.042864066
76	0x3e53952f	0.20662378
77	0x3dac1713	0.084028386
78	0xbe2f7c00	-0.17137146
79	0x3d7ab5d8	0.061208576

build_network/model/stacked_hg/hourglass0/hg_conv0/inverted_bottleneck/inverted_bottleneck_pwise_conv/Conv2D_bias f4 [16]
0	0x3ff967e5	1.9484831
1	0x3f691dc6	0.91061056
2	0x3fc23918	1.5173674
3	0x405466bd	3.3187706
4	0x3dfd5314	0.123693615
5	0xbf94ea2b	-1.1633962
6	0x4007daca	2.1227288
7	0x3fb2fdfa	1.3983757
8	0xc0d83f7c	-6.7577496
9	0x3d3f5c6c	0.046719
10	0x3f384c49	0.719914
11	0x3ec64c8c	0.38730276
12	0x4047f6b4	3.1244326
13	0x403ed22c	2.9815779
14	0x403903c7	2.8908556
15	0x3ff380ba	1.9023659

build_network/model/stacked_hg/hourglass0/hg_conv1/inverted_bottleneck/inverted_bottleneck_bottleneck/Conv2D_bias f4 [80]
0	0x3e902a30	0.28157187
1	0x3e8bbf78	0.27294517
2	0x3d976e54	0.0739409
3	0x3d1b95c6	0.037984632
4	0x3e604b88	0.21903813
5	0xbd2060df	-0.039154883
6	0xbe006772	-0.12539461
7	0xbe190e2e	-0.14946815
8	0x3e179c5e	0.14805743
9	0x3e3bbb2c	0.18333119
10	0x3cdda721	0.027057232
11	0xbd3f55c7	-0.046712663
12	0xbe842b3f	-0.25814244
13	0xbf1083cf	-0.56451124
14	0x3e98e2a0	0.298604
15	0x3dd7cf24	0.10537556
16	0x3e883ac6	0.2660734
17	0xbd17c700	-0.037055016
18	0x3cb6a07c	0.022293322
19	0x3eb09355	0.34487405
20	0xbcf2cfd6	-0.02964012
21	0x3ceb2843	0.028705722
22	0xbf515e90	-0.81784916
23	0x3e818a49	0.25300816
24	0x3ee3d7a9	0.44500473
25	0x3ed50692	0.41606575
26	0x3e942dd0	0.28941202
27	0xbed44899	-0.41461638
28	0x3dd18c01	0.10231782
29	0x3dcdeb95	0.10054699
30	0x3dac8457	0.08423679
31	0xbefbfb96	-0.49215382
32	0x3ecde73a	0.40215474
33	0x3dbf6e64	0.09347227
34	0x3e249ea1	0.16076137
35	0x3e9ca4c6	0.30594462
36	0xbe378a0a	-0.17923751
37	0xbf4d0e14	-0.80099607
38	0xbe219f71	-0.15783478
39	0x3d957353	0.07297387
40	0xbd694e38	-0.05695936
41	0x3ef72a0c	0.48274267
42	0x3e6180d1	0.22021796
43	0x3d3748bb	0.044747096
44	0x3e660fa3	0.22466902
45	0xbe12bff8	-0.14331043
46	0xbe9b95a9	-0.3038762
47	0x3f1deb25	0.6168693
48	0x3ea106e0	0.31450558
49	0xbd6ef5a5	-0.058339734
50	0xbd96d85e	-0.073654875
51	0x3dc8ed38	0.09810871
52	0xbb1fc6d4	-0.0024379985
53	0x3c4a8434	0.012360621
54	0xbe1cdb06	-0.15317926
55	0x3db1ec3c	0.08687636
56	0xbe33f132	-0.17572477
57	0xbebc7877	-0.36810657
58	0xbea898c3	-0.32929048
59	0x3ea31576	0.3185231
60	0x3cdd80d6	0.027038973
61	0x3e172fa3	0.14764266
62	0x3e19d0e7	0.15021096
63	0x3e79aebd	0.24383064
64	0xbe51187f	-0.20419501
65	0x3e6b92c0	0.230052
66	0xbeda9222	-0.42689615
67	0xbda9a8ef	-0.08284175
68	0xbeca8470	-0.39554167
69	0xbe379694	-0.17928535
70	0xbd284090	-0.041077197
71	0xbda6fce8	-0.08153707
72	0xbcd894f2	-0.02643821
73	0xbdd4cc28	-0.10390502
74	0x3ecb3c4d	0.39694443
75	0x3f4b7f04	0.79490685
76	0x3dde86ba	0.10865541
77	0x3de947b6	0.11390631
78	0xbf2cca82	-0.674965
79	0xbe37ce13	-0.17949705

build_network/model/stacked_hg/hourglass0/hg_conv1/inverted_bottleneck/inverted_bottleneck_dwise_conv/depthwise_bias f4 [80]
0	0x3e6c14c7	0.23054801
1	0x3e4471c5	0.19184025
2	0x3e612ff9	0.21990956
3	0x3e87668d	0.26445428
4	0x3df24b09	0.11830718
5	0x3e9fc9e3	0.31208715
6	0xbe4c1723	-0.19930701
7	0x3e7d9857	0.24765144
8	0x3c33690f	0.010950341
9	0x3e67502f	0.22589181
10	0x3d4b157a	0.04958103
11	0x3eae31d0	0.3402238
12	0xbd30876d	-0.043097902
13	0xbe01d016	-0.12677035
14	0x3e61f5c3	0.22066407
15	0x3ebccb81	0.3687401
16	0x3e2be13d	0.1678514
17	0x3ce00f06	0.027350914
18	0x3dd86542	0.105661884
19	0x3e832416	0.2561347
20	0x3d9cedb4	0.07662526
21	0xbe1640c7	-0.14673148
22	0x3e2625d1	0.16225363
23	0xbbb31221	-0.0054648076
24	0x3da4b29e	0.08041881
25	0x3e62a115	0.2213176
26	0x3e4cb47d	0.19990726
27	0xbcd731f0	-0.02626893
28	0x3ddef7ec	0.10887131
29	0x3c815aa1	0.015790286
30	0x3ec371d5	0.38172784
31	0x3e272db7	0.16326033
32	0x3c6c209d	0.0144120725
33	0xbeb18ffd	-0.34680167
34	0x3c9bc404	0.019014366
35	0xbd059633	-0.032613944
36	0x3c32cd2d	0.0109131755
37	0x3d2ab85d	0.04167973
38	0x3d9a91fa	0.07547374
39	0x3e3c6d1c	0.18400997
40	0x3bdf2c6e	0.0068107164
41	0x3e2564c8	0.16151726
42	0x3e56cec8	0.20977318
43	0x3e3be1a3	0.18347792
44	0xbc519dfe	-0.012794016
45	0xbd540c46	-0.051769517
46	0x3dddde31	0.10833395
47	0x3eaa964f	0.333178
48	0x3e9a2348	0.30105042
49	0xbe4e3941	-0.20139028
50	0x3e440086	0.19140825
51	0x3df2d5a0	0.11857152
52	0x3e3a4b34	0.1819275
53	0x3d6dd1a9	0.058061276
54	0xbdcca148	-0.099916995
55	0x3d70c5c7	0.058782365
56	0xbd3caa81	-0.046061043
57	0xbdeb5db0	-0.11492479
58	0xbe5d3fb7	-0.21606337
59	0x3c9571bc	0.01824271
60	0x3d986e6d	0.07442937
61	0xbdd6b45c	-0.104836196
62	0x3eb37a4e	0.3505425
63	0x3ea12dfd	0.314804
64	0x3ceb76d5	0.028743187
65	0x3e0cc0c6	0.13745412
66	0xbe8a5558	-0.27018237
67	0xbdef815d	-0.11694596
68	0x3c840952	0.016117726
69	0x3e2fc6cf	0.17165683
70	0x3e53fa8c	0.20701045
71	0x3e6f643b	0.23378079
72	0x3d612213	0.054964136
73	0x3e851ad2	0.25997025
74	0xbd7048a5	-0.05866303
75	0x3dde7993	0.10863032
76	0xbc444825	-0.011980091
77	0x3ea9e23a	0.3318041
78	0xbf0a4cdf	-0.54023546
79	0xbe2aa5af	-0.16664766

build_network/model/stacked_hg/hourglass0/hg_conv1/inverted_bottleneck/inverted_bottleneck_pwise_conv/Conv2D_bias f4 [16]
0	0xc0264844	-2.5981607
1	0x40846288	4.1370277
2	0xbfcc30a1	-1.595234
3	0x403249c4	2.7857523
4	0x409a0d3a	4.8141146
5	0x3f0f5cf9	0.5600124
6	0xbfff9a26	-1.9968917
7	0xc0c1d723	-6.057512
8	0xc09eedf6	-4.966548
9	0x3f437404	0.763489
10	0xbf308ad0	-0.6896181
11	0xbfd1bedd	-1.6386372
12	0x40016690	2.021885
13	0xbf8bd066	-1.0922973
14	0x3ffefcb2	1.9920866
15	0xc0dd2f98	-6.91206

build_network/model/stacked_hg/hourglass0/hg_convbottom/inverted_bottleneck/inverted_bottleneck_bottleneck/Conv2D_bias f4 [80]
0	0xbe780c66	-0.2422348
1	0x3e21308a	0.15741172
2	0x3e7f18b8	0.24911773
3	0x3f01a96a	0.5064913
4	0x3e7486f0	0.238796
5	0xbd085b1a	-0.033290006
6	0x3eec4513	0.4614645
7	0x3e827f33	0.2548767
8	0xbdc0a62e	-0.09406696
9	0xbdf1897c	-0.11793801
10	0xbd2c60f3	-0.042084645
11	0x3ed25db2	0.4108711
12	0x3e12cafd	0.14335246
13	0xbd3b2eb1	-0.045698825
14	0x3ce6c5af	0.028170435
15	0x3e95e42b	0.2927564
16	0xbe2b82d5	-0.16749127
17	0x3e982872	0.29718357
18	0x3e0dadfe	0.13835904
19	0x3eb1a099	0.3469284
20	0xbd3bc8b7	-0.045845713
21	0x3dd23466	0.102639005
22	0xbde4e43e	-0.11176346
23	0xbc7df285	-0.015499716
24	0xbe3a861e	-0.18215224
25	0x3e81f6be	0.25383562
26	0x3ea52b29	0.3225949
27	0x3c34fba9	0.011046329
28	0x3ea40682	0.32036215
29	0xbcffeb86	-0.031240236
30	0x3d04a5ec	0.032384798
31	0xbb17a9ea	-0.0023142048
32	0xbe866e50	-0.26256037
33	0x3e4ef3de	0.20210215
34	0xbdf77eab	-0.12084707
35	0x3dd98ca8	0.10622531
36	0xbe2a783f	-0.16647433
37	0x3e3d7f3b	0.18505566
38	0x3f232eb8	0.6374316
39	0xbea32087	-0.31860754
40	0x3e5137d3	0.20431451
41	0x3f19dc24	0.6010153
42	0x3ecb6f34	0.3973328
43	0xbe0ca145	-0.13733394
44	0x3e486c42	0.19572547
45	0x3e475f23	0.19469886
46	0x3f34fdc8	0.7069974
47	0x3eba2afc	0.3636092
48	0xbe07971b	-0.13241236
49	0x3ea1c2b3	0.31593856
50	0x3d8867c3	0.06660416
51	0xbe02660a	-0.12734237
52	0xbeb3475c	-0.3501538
53	0xbf0adc76	-0.54242647
54	0xbbe200d7	-0.006897073
55	0xbee71f16	-0.45140904
56	0x3e8c3807	0.27386495
57	0x3e7d469b	0.24733965
58	0xbe46158d	-0.19344158
59	0x3e6d13e7	0.23152123
60	0xbe60e2f7	-0.2196158
61	0xbc03cb44	-0.008044068
62	0x3ddcac0a	0.10775001
63	0xbd54d862	-0.05196417
64	0xbdee9c23	-0.116508745
65	0x3e7722f9	0.24134435
66	0xbdb035bb	-0.08603998
67	0x3e01f807	0.12692271
68	0xbda63abd	-0.08116672
69	0x39df0207	0.00042535385
70	0xbc2f27fd	-0.010690686
71	0x3e279a38	0.16367424
72	0x3e6ee8c9	0.23330988
73	0xbeec7207	-0.46180746
74	0xbe9fbbf3	-0.3119808
75	0x3e969151	0.29407743
76	0x3d98758d	0.07444296
77	0xbea402f6	-0.3203351
78	0x3d809271	0.062779315
79	0x3e572fce	0.2101433

build_network/model/stacked_hg/hourglass0/hg_convbottom/inverted_bottleneck/inverted_bottleneck_dwise_conv/depthwise_bias f4 [80]
0	0x3e5ffc72	0.21873644
1	0x3e8a52fb	0.27016434
2	0xbe8daddb	-0.27671704
3	0xbddffb09	-0.10936553
4	0x3e41a83a	0.1891183
5	0xbe4cf46e	-0.20015118
6	0x3ef2ccbd	0.47421828
7	0x3d1c0de5	0.03809919
8	0xbe5f4b3b	-0.21806042
9	0xbedf10c6	-0.43567485
10	0xbce205df	-0.02759069
11	0x3dc1661b	0.09443303
12	0x3ed658eb	0.41864714
13	0xbd2dc63c	-0.04242538
14	0x3e80fbee	0.25192207
15	0x3e4b9607	0.1988145
16	0xbebac551	-0.36478665
17	0x3d903947	0.07042175
18	0x3d979ae9	0.07402594
19	0xbe29e31e	-0.16590545
20	0x3ef6f826	0.48236197
21	0x3d007fc1	0.031371836
22	0xbe855307	-0.26039907
23	0xbd73272a	-0.05936352
24	0xbe283288	-0.16425526
25	0x3e8bf018	0.27331614
26	0x3ebeb69d	0.37248698
27	0x3e1633bf	0.14668177
28	0x3d162967	0.036660578
29	0x3f122e89	0.57102257
30	0xbe2ac8f6	-0.16678223
31	0xbe85986d	-0.26092854
32	0xbdbf4a4f	-0.09340345
33	0x3e496534	0.19667512
34	0x3e3182d0	0.17335057
35	0x3e87b8cf	0.26508185
36	0x3df0f7be	0.11766003
37	0xbd717918	-0.058953375
38	0x3ebcf3e3	0.3690482
39	0xbeee202c	-0.4650892
40	0x3c5c9278	0.013462655
41	0x3e8740e4	0.26416695
42	0xbeada1d6	-0.33912534
43	0x3edf0c75	0.4356419
44	0x3e101f54	0.1407445
45	0x3e64f008	0.2235719
46	0x3ea6450c	0.32474554
47	0xbcd33529	-0.025782185
48	0xbe16d261	-0.1472869
49	0x3e197960	0.14987707
50	0x3eefffe8	0.46874928
51	0x3d2946f7	0.041327443
52	0xbed99edd	-0.42504016
53	0xbc7ce0bd	-0.015434441
54	0xbea53fff	-0.32275388
55	0x3dee02ab	0.116216026
56	0x3e2813ae	0.16413757
57	0x3f0f71a7	0.56032795
58	0xbed43e7a	-0.41453916
59	0x3e03e77a	0.1288127
60	0xbed6c200	-0.41944885
61	0xbe0dd3d5	-0.13850339
62	0x3e27c59b	0.16383974
63	0xbdeeae4b	-0.116543375
64	0xbe2c13f8	-0.16804492
65	0x3e0ec260	0.13941336
66	0x3e7876a5	0.2426401
67	0x3e46e373	0.19422702
68	0xbc8eb961	-0.01742238
69	0x3c998d3b	0.018744102
70	0xbbd3fa34	-0.0064690355
71	0xbcda6000	-0.026657104
72	0x3d1a590e	0.037682585
73	0xbe074d9b	-0.13213198
74	0xbe34d39a	-0.17658845
75	0x3be4ae8a	0.0069788145
76	0x3e364656	0.17800269
77	0xbe1824a2	-0.14857724
78	0xbd36e39e	-0.044650666
79	0x3e788b05	0.24271782

build_network/model/stacked_hg/hourglass0/hg_convbottom/inverted_bottleneck/inverted_bottleneck_pwise_conv/Conv2D_bias f4 [16]
0	0xbe48d5c1	-0.1961279
1	0xc10d4cb4	-8.831226
2	0x3f0f6342	0.5601083
3	0x3d8c21b9	0.068423696
4	0x4043e030	3.0605583
5	0x3fc676bd	1.5504986
6	0x3fbe7e8e	1.4882371
7	0x3ff622d8	1.9229383
8	0x3fb61e12	1.4227927
9	0x40677e8a	3.6170983
10	0xc0c5638c	-6.1684017
11	0xbec3f416	-0.3827216
12	0x405eef52	3.483357
13	0xc0e78a46	-7.235629
14	0xc044374f	-3.0658758
15	0xc084441a	-4.133313

build_network/model/stacked_hg/hourglass0/hg_deconv0/bilinear_resize_inverted_bottleneck/bilinear_resize_inverted_bottleneck_bottleneck/Conv2D_bias f4 [80]
0	0xbe206130	-0.15662074
1	0xbf06261d	-0.52401906
2	0xbf005df7	-0.5014338
3	0xbe71e971	-0.23624207
4	0xbd1311a7	-0.035905506
5	0xbdd45e9a	-0.10369606
6	0x3ef5172a	0.47869235
7	0x3bd1c150	0.0064012185
8	0x3e6e7fc9	0.23290934
9	0x3e53eec4	0.2069655
10	0xbdb1bcdf	-0.086786024
11	0xbe239440	-0.15974522
12	0x3ea17be5	0.31539837
13	0x3e9c2c87	0.30502722
14	0x3e2a9ba3	0.16660933
15	0xbdfb99e2	-0.1228521
16	0x3f047902	0.51747143
17	0x3dfc1366	0.123083875
18	0x3e8e4ffb	0.27795395
19	0x3ee699e9	0.450393
20	0x3ea058a7	0.31317636
21	0x3d0bec98	0.03416118
22	0xbf0745dd	-0.5284098
23	0x3e41ff30	0.18945003
24	0x3e9d72ae	0.30751556
25	0xbec87cd1	-0.39157727
26	0x3e42aa80	0.19010353
27	0xbe75fc7f	-0.24022101
28	0x3d9e79e0	0.077380896
29	0xbe27fd43	-0.16405205
30	0x3d5bdc48	0.053676873
31	0xbe65f572	-0.22456911
32	0xbe9ef100	-0.31043243
33	0xbed84d3c	-0.42246425
34	0xbe08f574	-0.13374883
35	0xbd931d2e	-0.071833
36	0x3f61150d	0.87922746
37	0x3ebac1e4	0.36476052
38	0x3e073e33	0.13207321
39	0x3e46aa5b	0.19400923
40	0xbd9e8fda	-0.07742281
41	0xbe6ee9a2	-0.23331311
42	0xbee6e98d	-0.4510006
43	0x3ee80e3b	0.45323357
44	0xbc9730c0	-0.018455863
45	0xbe5bf18b	-0.2147886
46	0x3e2e31f8	0.17011249
47	0x3f6aae9d	0.9167269
48	0x3e2d47b5	0.16921885
49	0xbd87966c	-0.066204876
50	0xbd6fc449	-0.0585368
51	0xbf205b24	-0.6263907
52	0xbea0a974	-0.31379282
53	0x3cc60ddd	0.024176532
54	0x3bdd82c9	0.0067599756
55	0x3ebb0989	0.36530712
56	0xbe9dd565	-0.3082687
57	0xbeb8420b	-0.35987887
58	0x3d810e77	0.06301587
59	0xbe4d8903	-0.20071797
60	0x3f3d2669	0.73886734
61	0xbe9736aa	-0.29533893
62	0x3e57a7ea	0.21060148
63	0x3d10da0c	0.035364196
64	0x3eabc22d	0.33546582
65	0x3ed5ce6f	0.4175906
66	0xbebe8d3d	-0.3721713
67	0x3e0a0f1a	0.13482323
68	0x3db2f082	0.087372795
69	0x3e2f7574	0.17134649
70	0x3d7bcb10	0.061472952
71	0x3ee3ccc4	0.4449216
72	0xbe655c21	-0.22398426
73	0xbeba67d0	-0.36407328
74	0x3e605ada	0.21909657
75	0xbec66b07	-0.3875353
76	0xbe450fd1	-0.19244315
77	0xbed67eb5	-0.41893545
78	0xbe1b7337	-0.1518067
79	0xbda2a645	-0.0794187

build_network/model/stacked_hg/hourglass0/hg_deconv0/bilinear_resize_inverted_bottleneck/bilinear_resize_inverted_bottleneck_dwise_conv/depthwise_bias f4 [80]
0	0x3e458f7d	0.19293018
1	0xbecc2523	-0.39872083
2	0x3baeb8f5	0.005332107
3	0x3e82dd9c	0.255597
4	0x3e372207	0.17884074
5	0x3e94454d	0.28959122
6	0xbd55fe2d	-0.052244354
7	0x3db5b917	0.08873194
8	0x3f02e39a	0.5112854
9	0x3e7c5a85	0.24643905
10	0xbd4764ab	-0.04867999
11	0x3e4eabb2	0.20182684
12	0x3d663618	0.05620393
13	0x3e16f18d	0.14740582
14	0xbd41bcb1	-0.04729909
15	0x3d68b8cd	0.056816865
16	0x3e0c8178	0.13721263
17	0xbd7e456c	-0.062077925
18	0x3ec0f0f0	0.3768382
19	0x3c9e47db	0.019321373
20	0x3e1f3510	0.15547585
21	0x3e4bfa71	0.19919755
22	0xbeffc05d	-0.4995145
23	0x3e1ab5b6	0.1510838
24	0x3e168294	0.14698249
25	0xbed6dd1f	-0.41965577
26	0x3e43cecd	0.19121857
27	0xbdd4176e	-0.10356031
28	0x3eac1bbc	0.3361491
29	0x3edd5d29	0.43235138
30	0x3d516219	0.051118944
31	0xbe8247dd	-0.25445452
32	0xbee20567	-0.44144747
33	0xbe7672b9	-0.240672
34	0x3e17b938	0.14816749
35	0x3ec0b852	0.37640625
36	0x3ef7a3fd	0.483673
37	0x3e237474	0.15962392
38	0x3e842961	0.2581282
39	0x3e4250ca	0.18976131
40	0x3e994ba8	0.29940534
41	0xbd77efa6	-0.06053128
42	0x3f18e2a5	0.5972083
43	0x3e263791	0.16232134
44	0xbe9921a4	-0.29908478
45	0xbe872d14	-0.2640158
46	0x3e53aaa3	0.20670561
47	0x3e281fb0	0.16418338
48	0x3db591e0	0.08865714
49	0x3ea0e7b1	0.31426767
50	0x3e81deb5	0.25365224
51	0xbe810b12	-0.25203758
52	0xbe74cd83	-0.23906521
53	0x3e03148e	0.1280081
54	0x3edc31b6	0.43006676
55	0x3defd8d2	0.11711277
56	0x3d5615d1	0.0522669
57	0xbdb1d869	-0.08683855
58	0x3ed49e5a	0.41527063
59	0xbe8de698	-0.27714992
60	0xbe027a4a	-0.12741962
61	0xbd73d047	-0.0595248
62	0x3ee39146	0.44446772
63	0xbe5d6f31	-0.21624447
64	0x3e28099f	0.1640992
65	0x3e1f4496	0.15553507
66	0x3dc2d134	0.095125586
67	0x3e6b9a79	0.23008145
68	0x3ce2898a	0.027653474
69	0xbd0b3d1e	-0.033993833
70	0x3dd9c97b	0.106341325
71	0x3e13c843	0.14431863
72	0xbe5956f7	-0.2122458
73	0xbe8b280e	-0.27178997
74	0x3df6df7f	0.12054347
75	0xbebe7fc1	-0.37206843
76	0xbe707985	-0.23483856
77	0x3cab0d7d	0.020880455
78	0xbe8d4f91	-0.27599767
79	0xbd352be9	-0.04423133

build_network/model/stacked_hg/hourglass0/hg_deconv0/bilinear_resize_inverted_bottleneck/bilinear_resize_inverted_bottleneck_pwise_conv/Conv2D_bias f4 [16]
0	0x3e30527f	0.1721897
1	0xc000b83a	-2.0112443
2	0xc034742e	-2.819591
3	0xbfca99eb	-1.5828222
4	0x40419c09	3.0251486
5	0xbf54facb	-0.8319518
6	0xbfe84bb8	-1.8148108
7	0x3ffa9e9d	1.9579655
8	0x3eb620f6	0.35572022
9	0x3fc17d88	1.5116434
10	0x4090f0e8	4.5294075
11	0xc086ad32	-4.208642
12	0x401f2245	2.4864666
13	0x3fb4a6bc	1.4113383
14	0xc0824a7e	-4.0715933
15	0xbfb558ef	-1.4167765

build_network/model/stacked_hg/hourglass0/hg_deconv1/bilinear_resize_inverted_bottleneck/bilinear_resize_inverted_bottleneck_bottleneck/Conv2D_bias f4 [80]
0	0x3f21b477	0.6316599
1	0xbdabe0c3	-0.08392479
2	0xbe946c61	-0.28988937
3	0xbdd6c8b2	-0.10487498
4	0x3f227f0b	0.634751
5	0xbe9b3a5c	-0.30317962
6	0x3effc145	0.4995214
7	0xbe9cb937	-0.30610058
8	0xbf0a0cc5	-0.53925735
9	0x3f1abc6d	0.60443765
10	0x3e44677d	0.19180103
11	0xbeba2233	-0.36354217
12	0x3ea28184	0.31739438
13	0x3e947952	0.2899881
14	0xbf11b744	-0.56920266
15	0x3e9883d0	0.29788065
16	0xbe698488	-0.22804463
17	0x3e547713	0.20748548
18	0x3df07d79	0.11742682
19	0xbe31ed34	-0.17375642
20	0xbeab35e4	-0.33439553
21	0x3cef1d0a	0.029188652
22	0xbed06118	-0.40699077
23	0xbe931882	-0.28729635
24	0xbe8a572b	-0.2701963
25	0xbeae5af4	-0.34053767
26	0xbd1bfd64	-0.03808345
27	0xbde9f118	-0.11422938
28	0x3d299f23	0.04141153
29	0x3e760f2f	0.2402923
30	0xbe1f5a8d	-0.15561886
31	0xbc4238f5	-0.0118544
32	0xbedf954b	-0.4366859
33	0xbe633261	-0.22187187
34	0xbc8aee3d	-0.016959304
35	0xbe88002f	-0.2656264
36	0x3e40ac7e	0.188158
37	0xbe8d0556	-0.27543133
38	0x3edecb83	0.43514642
39	0xbead64dd	-0.33866015
40	0x3e49a112	0.1969035
41	0xbf409df8	-0.7524104
42	0x3f2b05be	0.66805637
43	0xbe7c5c1f	-0.24644516
44	0xbe93a688	-0.2883799
45	0x3ed12543	0.4084874
46	0x3e9bfe41	0.30467418
47	0xbf2a99a1	-0.6664067
48	0x3e0b03ba	0.1357564
49	0xbe84f9ed	-0.25971928
50	0xbea83722	-0.32854563
51	0xbeff9aaa	-0.49922687
52	0xbf09d101	-0.5383454
53	0x3dff721b	0.12472936
54	0xbefa6552	-0.48905426
55	0xbf56c64c	-0.83896327
56	0x3f169bba	0.5883137
57	0xbe987299	-0.2977493
58	0xbedf6b90	-0.4363675
59	0x3c8ee5b0	0.017443508
60	0xbee4b51b	-0.44669423
61	0xbc5ad980	-0.01335752
62	0xbf76a4ca	-0.963452
63	0xbe03ec16	-0.12883028
64	0xbf10470e	-0.5635842
65	0x3d5fc67f	0.05463266
66	0xbe929419	-0.28628615
67	0xbecae3f8	-0.3962705
68	0x3f2646ce	0.6495179
69	0x3edb56f8	0.4283979
70	0xbe0faec7	-0.14031516
71	0xbe6de4c0	-0.23231792
72	0x3dc2badd	0.095082976
73	0x3eab9775	0.3351399
74	0x3f0275d2	0.5096103
75	0xbebbdb2b	-0.3669065
76	0xbcf0206a	-0.029312331
77	0xbf674a52	-0.9034778
78	0x3e95ece0	0.29282284
79	0xbf00118f	-0.5002679

build_network/model/stacked_hg/hourglass0/hg_deconv1/bilinear_resize_inverted_bottleneck/bilinear_resize_inverted_bottleneck_dwise_conv/depthwise_bias f4 [80]
0	0x3e50d493	0.2039359
1	0xbd89f7c0	-0.06736708
2	0x3ee9d66c	0.45671403
3	0xbdb90b76	-0.09035389
4	0xbdd324dc	-0.10309765
5	0xbdbac4f9	-0.09119601
6	0x3d81b9e3	0.06334283
7	0xbde5487d	-0.11195467
8	0x3cedf463	0.029047197
9	0xbc59095f	-0.013246863
10	0x3f0b86f3	0.5450279
11	0x3ecb18bb	0.39667305
12	0xbe78e023	-0.24304251
13	0x3da6d229	0.081455536
14	0xbd6d4708	-0.05792907
15	0x3e860b80	0.2618065
16	0x3eeeb036	0.46618813
17	0x3ea0a404	0.31375134
18	0x3df67d44	0.12035611
19	0x3e085f99	0.13317718
20	0x3f527124	0.8220389
21	0xbdd69da1	-0.10479284
22	0x3e1926db	0.14956228
23	0xbe70a7bb	-0.23501484
24	0xbe7f5549	-0.24934877
25	0x3f1c0df6	0.609588
26	0x3eac7306	0.33681506
27	0x3f078d84	0.5295031
28	0x3ed5126f	0.41615626
29	0x3d69d92d	0.05709188
30	0xbe7fb316	-0.2497066
31	0x3f0de501	0.5542756
32	0xbe64e1e6	-0.22351798
33	0x3dceda07	0.10100179
34	0xbddfeaaa	-0.109334305
35	0x3e5d1512	0.21590069
36	0x3e3a48a4	0.18191773
37	0x3e233a37	0.15940176
38	0x3eb50e5c	0.35362518
39	0xbc89cb77	-0.016820652
40	0x3e9e51aa	0.3092168
41	0x3f18d818	0.5970473
42	0x3c9e3fb3	0.019317484
43	0x3e8422c8	0.25807786
44	0x3c3da339	0.01157456
45	0x3eec5e71	0.46165803
46	0x3ebaea91	0.36507085
47	0xbe234388	-0.1594373
48	0x3e2967de	0.16543528
49	0xbdc5ab6f	-0.09651839
50	0x3d33bcad	0.043881107
51	0xbdaf0f99	-0.08547897
52	0x3dae1b15	0.08501259
53	0x3e8588cb	0.26080927
54	0x3daa433c	0.08313605
55	0x3d8c1cfd	0.068414666
56	0xbdf28f79	-0.118437715
57	0x3e1b9f1e	0.15197417
58	0x3ee6cf7f	0.45080182
59	0x3e72bff1	0.23706032
60	0xbe4e4a51	-0.20145537
61	0x3d5d5c19	0.05404291
62	0x3d19e834	0.03757496
63	0x3c6501e3	0.013977501
64	0xbde18601	-0.11011887
65	0x3e6fa6e1	0.23403503
66	0xbe088e44	-0.1333552
67	0x3d6f55a0	0.058431268
68	0xbe49644f	-0.19667171
69	0x3edc6d68	0.4305222
70	0xbd7d6e5e	-0.061872832
71	0xbe3d1c2f	-0.18467782
72	0x3e1f9342	0.15583518
73	0x3e7709bd	0.24124809
74	0x3d3393ec	0.04384224
75	0xbe4568f4	-0.19278318
76	0x3c1eb14f	0.009685828
77	0x3d9d5d3f	0.07683801
78	0x3e5c7157	0.2152761
79	0x3e2d3ea6	0.1691843

build_network/model/stacked_hg/hourglass0/hg_deconv1/bilinear_resize_inverted_bottleneck/bilinear_resize_inverted_bottleneck_pwise_conv/Conv2D_bias f4 [16]
0	0x408635c1	4.1940618
1	0xc02603cf	-2.5939825
2	0x40189276	2.3839393
3	0x4013e96d	2.3111222
4	0xc01f81c3	-2.492295
5	0x403f3b1a	2.9879823
6	0x3fa124b1	1.2589322
7	0xbec93489	-0.39297894
8	0xc02bd2d9	-2.6847441
9	0x3ffe8a31	1.9885923
10	0x41029da9	8.163491
11	0xc0785ce6	-3.88067
12	0x40d99161	6.7989964
13	0x40487d3c	3.1326437
14	0xc00745b5	-2.1136296
15	0x40a664a3	5.1997848

build_network/model/stacked_hg/hourglass0/shortcut_conv0/hg_conv_shortcut_00/hg_conv_shortcut_00_bottleneck/Conv2D_bias f4 [80]
0	0xbcb7e33f	-0.022447227
1	0xbea98b87	-0.33114263
2	0xbcaba314	-0.020951785
3	0xbe0fdf34	-0.14049989
4	0x3db3e41f	0.08783745
5	0x3e3ca557	0.18422447
6	0x3db70ec4	0.08938363
7	0xbd9194f3	-0.07108488
8	0xbe9c60ca	-0.30542594
9	0x3e1413b1	0.14460637
10	0xbe8eaff3	-0.27868614
11	0xbe4b4811	-0.1985171
12	0x3ee9c498	0.45657802
13	0xbdbb796e	-0.0915402
14	0x3df533ca	0.119727686
15	0xba1d5712	-0.0006002049
16	0x3e58ad2f	0.21159814
17	0x3e6bc161	0.23022987
18	0xbd5760b2	-0.05258245
19	0x3e3b95d5	0.18318875
20	0x3d0f719d	0.03502046
21	0xbe80b533	-0.25138244
22	0x3e480268	0.19532168
23	0x3e1c6dc9	0.15276255
24	0x3d33dd3d	0.04391216
25	0xbe063aaa	-0.13108316
26	0xbe5350d8	-0.20636308
27	0x3eba564a	0.36393958
28	0x3def4b86	0.11684327
29	0x3e38f4f8	0.18062198
30	0xbeb1321c	-0.34608543
31	0xbde14e04	-0.110012084
32	0xbbdc0975	-0.0067149946
33	0x3d6669cf	0.05625325
34	0xbc8e214e	-0.017349865
35	0x3dfc2115	0.123109974
36	0x3eb3133f	0.3497562
37	0x3e07a810	0.13247705
38	0xbd54d566	-0.051961325
39	0x3d0b9f65	0.034087557
40	0x3cb50ff3	0.022102332
41	0x3e558cd3	0.20854501
42	0x3e246bda	0.16056767
43	0x3eb126fe	0.3460006
44	0xbfa42e0a	-1.282655
45	0x3f042616	0.51620615
46	0xbd0391f8	-0.03212163
47	0x3ec405fe	0.38285822
48	0x3f0369d0	0.5133333
49	0x3cc7e048	0.024398938
50	0xbd492cd1	-0.049115006
51	0xbdf8da11	-0.12150968
52	0x3eda833c	0.4267825
53	0x3ac75fce	0.0015211047
54	0xbd61f39c	-0.055163965
55	0xbe90f68c	-0.283131
56	0x3e3a820c	0.18213671
57	0x39a553aa	0.00031533587
58	0xbaca158b	-0.0015417797
59	0x3d46259c	0.04837571
60	0x3e424528	0.18971694
61	0x3ec1f17e	0.37879556
62	0x3d1ac211	0.037782732
63	0x3f4b16f7	0.79331917
64	0x3ebeffab	0.37304434
65	0x3e21d4ce	0.15803835
66	0x3e35dc10	0.17759728
67	0x3e807c92	0.2509504
68	0x3e26dd0a	0.16295257
69	0x3ea33a90	0.31880617
70	0xbe1998fb	-0.14999764
71	0xbddfc2d2	-0.10925831
72	0x3e839169	0.25696877
73	0xbdea5414	-0.11441818
74	0x3d99c710	0.07508671
75	0x3e3a59a9	0.18198265
76	0x3e0201ab	0.12695949
77	0xbdeec607	-0.116588645
78	0x3d69b70a	0.057059325
79	0x3ea2068f	0.3164563

build_network/model/stacked_hg/hourglass0/shortcut_conv0/hg_conv_shortcut_00/hg_conv_shortcut_00_dwise_conv/depthwise_bias f4 [80]
0	0x3e8d8d70	0.2764697
1	0x3dc742a3	0.09729507
2	0x3ed09216	0.40736455
3	0xbda1d817	-0.07902544
4	0xbe84412b	-0.2583097
5	0x3df4f5b4	0.11960927
6	0x3daf78dd	0.08567975
7	0x3f04e55f	0.5191249
8	0x3d1e08c0	0.038582563
9	0x3ea87263	0.3289977
10	0x3e0692f8	0.13142002
11	0x3de81349	0.11331803
12	0x3de16ee6	0.1100748
13	0x3d3cf5fa	0.04613302
14	0xbe5d4226	-0.21607265
15	0x3cf3d004	0.029762276
16	0x3ecb73d1	0.39736798
17	0x3e975b08	0.2956164
18	0x3ce4a067	0.027908517
19	0x3dcdaeeb	0.100431286
20	0x3d82a040	0.063782215
21	0x3dd4dfb9	0.10394234
22	0x3cefa6f4	0.029254414
23	0xbd59b3d0	-0.05315
24	0xbd92db66	-0.07170753
25	0xbd45b42f	-0.04826754
26	0xbe953719	-0.291436
27	0x3f9bf681	1.2184602
28	0xbe8f5316	-0.27993077
29	0x3e78f0da	0.24310628
30	0xbe36dd33	-0.17857818
31	0x3e13397a	0.14377394
32	0xbe27d725	-0.16390665
33	0x3e0128b2	0.1261318
34	0x3e2f9564	0.17146832
35	0xbd4b195e	-0.04958474
36	0x3f089618	0.53354025
37	0x3e9f8e7d	0.31163397
38	0x3f23a985	0.6393054
39	0x3e79b88e	0.24386808
40	0x3eed612c	0.463632
41	0xbdb6f44f	-0.08933317
42	0x3e2f84df	0.1714053
43	0x3efd3b1b	0.49459156
44	0xbefba8fa	-0.49152356
45	0x3dae3bb9	0.08507485
46	0xbdb1c27f	-0.08679675
47	0x3ea71fc1	0.32641414
48	0x3f221c75	0.6332467
49	0x3e7939ff	0.2433853
50	0x3d3d9bc5	0.04629113
51	0xbf0acdea	-0.5422045
52	0x3ecb3031	0.39685205
53	0xbe43c917	-0.19119678
54	0x3e3a5e39	0.18200006
55	0x3df81976	0.12114231
56	0x3ec098c6	0.37616557
57	0x3e93156b	0.28727278
58	0x3ea3a861	0.319644
59	0xbdc734af	-0.097268455
60	0x3eceae6a	0.40367442
61	0xbd8e2869	-0.069413014
62	0xbdab1d22	-0.08355166
63	0xbcd1adcc	-0.025595568
64	0xbd760a36	-0.06006833
65	0x3ec5c11e	0.386239
66	0x3f348e2a	0.70529425
67	0xbd0c01d9	-0.03418145
68	0x3d77b967	0.060479548
69	0x3e0817c6	0.13290319
70	0x3d1263a9	0.035739575
71	0x3dfeec47	0.1244741
72	0xbe75a541	-0.2398882
73	0xbe29b615	-0.16573365
74	0x3eac8799	0.33697203
75	0x3cdd457d	0.027010674
76	0x3e1cdec1	0.15319349
77	0x3ecf3a45	0.40474144
78	0x3db9c0cd	0.09069977
79	0x3dc0b641	0.09409762

build_network/model/stacked_hg/hourglass0/shortcut_conv0/hg_conv_shortcut_00/hg_conv_shortcut_00_pwise_conv/Conv2D_bias f4 [16]
0	0xbf7211f0	-0.9455862
1	0x4060e670	3.5140648
2	0x4085c77c	4.180601
3	0xbee4f843	-0.4472066
4	0x402a30b7	2.6592233
5	0xc0accad5	-5.39976
6	0xbfae8e07	-1.3637093
7	0x403394f6	2.8059669
8	0x3f29d3b8	0.6633868
9	0x3ff72edd	1.9311177
10	0xc07c15c2	-3.938828
11	0xbfff87f4	-1.9963365
12	0xc02947c9	-2.6450064
13	0xbf695f68	-0.91161203
14	0xbf3dcc79	-0.74140126
15	0xbf770054	-0.96484876

build_network/model/stacked_hg/hourglass0/shortcut_conv0/hg_conv_shortcut_01/hg_conv_shortcut_01_bottleneck/Conv2D_bias f4 [80]
0	0x3e08b38f	0.13349746
1	0x3ec9b76d	0.39397755
2	0x3e827a66	0.25484008
3	0x3a0443f7	0.0005045528
4	0x3f05f5b0	0.52328014
5	0x3e014746	0.12624845
6	0x3ddeea0d	0.108844854
7	0xbe0d6536	-0.1380814
8	0x3e9bc5e8	0.30424428
9	0xbe9634fd	-0.29337302
10	0x3d611115	0.05494793
11	0x3c3e1644	0.011601988
12	0x3e654036	0.22387776
13	0x3e74b902	0.238987
14	0x3d5008c5	0.050789613
15	0x3dee0a18	0.11623019
16	0xbd4d30e4	-0.050095454
17	0x3ebeaca8	0.372411
18	0x3e72b55a	0.23701993
19	0xbe3974b1	-0.1811092
20	0x3e2f808b	0.17138879
21	0x3e7635e4	0.24043995
22	0x3e61d1bc	0.22052664
23	0xbd2ae98f	-0.041726645
24	0x3e4186a5	0.18899019
25	0xbe0a58aa	-0.13510385
26	0xbeac6b99	-0.3367584
27	0x3ecfabf0	0.40560865
28	0x3dcc5901	0.09977914
29	0x3d2951f1	0.04133791
30	0x3ecec238	0.40382552
31	0x3e861641	0.26188853
32	0x3e462853	0.1935132
33	0x3dfb6da5	0.122767724
34	0x3e5620ff	0.20911025
35	0x3f166a50	0.5875597
36	0x3eb0ac44	0.34506428
37	0x3ec759bb	0.38935646
38	0x3f033530	0.5125303
39	0xbca88356	-0.020570438
40	0x3d92812e	0.07153545
41	0x3dfef6bc	0.124494046
42	0x3eb56f95	0.35436693
43	0xbe5700b0	-0.20996356
44	0x3ea82ce8	0.3284676
45	0x3efe00ef	0.49610087
46	0x3e04661d	0.12929578
47	0x3ec5badf	0.38619134
48	0xbdeee7ba	-0.11665292
49	0xbe979552	-0.2960611
50	0x3e7215d4	0.2364114
51	0xbe4e94c2	-0.20173934
52	0xbc66ff1d	-0.01409891
53	0x3e5d03cb	0.21583478
54	0x3c672cdd	0.014109817
55	0xbdafa464	-0.08576277
56	0x3e7c5ec4	0.24645525
57	0x3e13d0aa	0.14435068
58	0xbdafe6bf	-0.08588933
59	0x3dbf8c30	0.093529105
60	0xbecb31df	-0.39686486
61	0x3efb4b08	0.49080682
62	0x3e924c39	0.28573778
63	0x3ea12cfe	0.3147964
64	0xbd2f8083	-0.042847168
65	0x3e579318	0.21052206
66	0xbe9ddc84	-0.30832303
67	0x3eaa26cc	0.33232725
68	0x3f1443b7	0.57915825
69	0xbe0b490b	-0.13602082
70	0xbea75c94	-0.3268782
71	0x3ca56576	0.020189982
72	0x3ca171c6	0.019707572
73	0x3e1be7ab	0.15225093
74	0xbd77ead5	-0.060526688
75	0x3f10c3d6	0.5654882
76	0x3e805396	0.2506377
77	0xbdf06e91	-0.11739839
78	0x3ed21ca4	0.41037476
79	0x3da32206	0.07965474

build_network/model/stacked_hg/hourglass0/shortcut_conv0/hg_conv_shortcut_01/hg_conv_shortcut_01_dwise_conv/depthwise_bias f4 [80]
0	0xbd325dbb	-0.04354642
1	0xbd9227a7	-0.07136469
2	0x3e94e27a	0.29079038
3	0x3dee29e0	0.11629081
4	0x3e96bad6	0.2943942
5	0xbe0b424f	-0.13599513
6	0x3db45185	0.08804611
7	0x3df42584	0.11921218
8	0x3e38995d	0.18027253
9	0xbe1e8acb	-0.15482633
10	0x3ddc100d	0.10745249
11	0x3d92372d	0.0713943
12	0x3d1f0e82	0.038832195
13	0xbe0f98b1	-0.14023091
14	0x3e4b3a39	0.19846429
15	0x3e3b674d	0.18301125
16	0xbe17bbae	-0.14817688
17	0x3ec84ee9	0.39122704
18	0xbd02ab69	-0.03190175
19	0xbe570153	-0.20996599
20	0x3ddc6475	0.10761348
21	0xbe1dc02c	-0.15405339
22	0x3dff55eb	0.124675594
23	0x3db76f95	0.089568295
24	0x3e9ebe38	0.310045
25	0x3e62f4f1	0.2216375
26	0xbf061fce	-0.5239228
27	0x3ca39aab	0.019971212
28	0x3d165176	0.03669878
29	0xbe2e4b88	-0.17021
30	0xbeb29fab	-0.34887442
31	0xbd14a6b4	-0.036291793
32	0x3d717c55	0.058956463
33	0x3ea40888	0.3203776
34	0xbbf70fc7	-0.0075397226
35	0x3e5fae92	0.21843937
36	0xbeaaa22b	-0.3332685
37	0x3eaeb79f	0.34124467
38	0x3e8cec0e	0.27523845
39	0x3e35afff	0.17742918
40	0x3ea65097	0.3248336
41	0x3e632942	0.22183707
42	0xbe3cbe23	-0.18431906
43	0xbe8fe744	-0.2810613
44	0x3e520f34	0.20513612
45	0xbe051601	-0.12996675
46	0x3dedacaf	0.116052024
47	0x3e3d7266	0.18500671
48	0xbca37edf	-0.019957958
49	0x3da84b5f	0.08217501
50	0x3e18f136	0.14935765
51	0xbd94663d	-0.07246063
52	0x3be1c39f	0.006889775
53	0x3eae97e8	0.3410027
54	0xbf432de5	-0.76241904
55	0x3d646dec	0.055768892
56	0xbe265eae	-0.16247055
57	0xbe3904d2	-0.18068245
58	0x3e74c2ea	0.23902479
59	0x3d997a80	0.07494068
60	0xbe883234	-0.26600802
61	0xbd9cddea	-0.07659514
62	0xbc468913	-0.012117642
63	0x3e046481	0.12928964
64	0x3e6004a3	0.21876769
65	0x3e40e3f1	0.18836953
66	0xbeab44ec	-0.3345102
67	0x3e0d3bc2	0.13792327
68	0x3ea68c2a	0.32528812
69	0x3da3c9ae	0.07997452
70	0x3ebc197e	0.367382
71	0xbd7487ca	-0.05969981
72	0x3e3c39a9	0.1838137
73	0x3f10b85d	0.56531316
74	0xbe4ddbaa	-0.20103326
75	0x3e518608	0.20461285
76	0x3f7919c1	0.9730492
77	0xbb244618	-0.0025066193
78	0xbe3dda35	-0.1854027
79	0x3e96ff54	0.29491675

build_network/model/stacked_hg/hourglass0/shortcut_conv0/hg_conv_shortcut_01/hg_conv_shortcut_01_pwise_conv/Conv2D_bias f4 [16]
0	0xbf2fbbae	-0.6864575
1	0x3e34b262	0.17646173
2	0x3fae6d28	1.3627062
3	0xbecccb50	-0.39998865
4	0x409e530c	4.9476376
5	0xbfb3ddd4	-1.4052072
6	0x3f99c126	1.2012069
7	0xbfda9dc6	-1.7079399
8	0xbff9701e	-1.948734
9	0x40d3bed0	6.6170425
10	0xc05ba9d8	-3.4322414
11	0xbffba02c	-1.9658256
12	0xc0808dd3	-4.0173125
13	0xc043be4d	-3.05849
14	0x40142715	2.3148854
15	0xc0aed5f1	-5.463616

build_network/model/stacked_hg/hourglass0/shortcut_conv0/hg_conv_shortcut_02/hg_conv_shortcut_02_bottleneck/Conv2D_bias f4 [80]
0	0x3ed0e4d0	0.4079957
1	0xbcecd316	-0.028909247
2	0x3ddefba9	0.10887844
3	0x3bef0462	0.0072942236
4	0x3d962c0c	0.0733262
5	0x3eb42d2e	0.3519072
6	0x3e3708d4	0.17874461
7	0xbdfd3608	-0.12363821
8	0xbd6aa60f	-0.057287272
9	0xbe941682	-0.28923422
10	0xbe235e57	-0.15953957
11	0x3de61a16	0.11235444
12	0x3eb1d48f	0.34732482
13	0xbdd8551d	-0.10563109
14	0x3e9d295f	0.30695626
15	0x3e275383	0.16340451
16	0x3f32feb6	0.6991991
17	0xbef5c311	-0.48000386
18	0xbd8eb80a	-0.069686964
19	0x3bd7b883	0.006583275
20	0x3e2c11ae	0.1680362
21	0x3ecf8457	0.40530655
22	0x3f091d42	0.5356027
23	0xbe39911d	-0.18121763
24	0xbe2464fd	-0.16054149
25	0x3da78dae	0.0818132
26	0x3e995d69	0.2995408
27	0x3d59da97	0.05318698
28	0xbe1edf84	-0.15514952
29	0xbcdf9c3f	-0.027296184
30	0x3e4c9f96	0.19982752
31	0xbe65d4db	-0.22444479
32	0x3edb6223	0.4284831
33	0xbeebe7b9	-0.46075228
34	0x3e809691	0.25114873
35	0xbe67bc6a	-0.22630468
36	0x3e3d935a	0.18513241
37	0xbe5d2f5e	-0.216001
38	0xbda8b1f8	-0.0823707
39	0x3df2bc8f	0.11852371
40	0x3ddae2d1	0.10687793
41	0x3d11b078	0.035568684
42	0xbdb55cd9	-0.088556
43	0x3e201506	0.1563302
44	0xbda2c7af	-0.07948243
45	0x3cf30d51	0.029669436
46	0xbebf8836	-0.37408608
47	0xbc8a05ae	-0.016848411
48	0xbce7b5b4	-0.028284885
49	0xbebb463e	-0.36577028
50	0x3ebc4cb9	0.36777285
51	0x3e5c79a2	0.21530774
52	0x3e3c10ed	0.18365832
53	0xbd5237a5	-0.051322598
54	0x3ea91fbd	0.33032027
55	0xbe7b778f	-0.24557327
56	0x3d604b8f	0.05475956
57	0xbdab2e3f	-0.0835843
58	0x3efe68d1	0.49689344
59	0x3e167cc6	0.14696035
60	0x3bb863bb	0.005627123
61	0x3cdadbdd	0.026716167
62	0x3f26c181	0.65139014
63	0xbe93f464	-0.28897393
64	0x3d516ca8	0.051129013
65	0x3df57a49	0.11986215
66	0x3ded90df	0.115998976
67	0x3d5968e6	0.053078555
68	0xbdae9f5a	-0.08526488
69	0x3d3308ce	0.04370957
70	0x3e9c2bd5	0.3050219
71	0x3ed4a0e8	0.41529012
72	0x3ed8dd3c	0.42356288
73	0xbe7deb09	-0.2479669
74	0x3de7ae50	0.11312544
75	0x3e98bac9	0.29830006
76	0xbf36b539	-0.71370274
77	0x3e04e63e	0.12978455
78	0x3e4574cc	0.19282836
79	0x3d6536c1	0.05596042

build_network/model/stacked_hg/hourglass0/shortcut_conv0/hg_conv_shortcut_02/hg_conv_shortcut_02_dwise_conv/depthwise_bias f4 [80]
0	0x3d4fdc14	0.050746992
1	0xbe3e746c	-0.18599099
2	0x3e26981e	0.16268966
3	0xbd5ebbed	-0.05437844
4	0x3e36cbe8	0.17851222
5	0xbe116f18	-0.14202535
6	0x3dd7b739	0.10532994
7	0xbe18e685	-0.14931686
8	0x3d6d147d	0.057880867
9	0xbd421878	-0.047386616
10	0xbc6801c1	-0.014160574
11	0x3d3c9387	0.04603913
12	0x3d84d4d8	0.06485909
13	0xbe4a1033	-0.19732742
14	0x3e1ac8d0	0.15115666
15	0x3e8242bc	0.2544154
16	0x3f3088b8	0.68958616
17	0x3e25ba75	0.16184409
18	0x3d08e8e7	0.033425238
19	0x3c4d21ac	0.012520235
20	0x3ec51868	0.38495183
21	0xbc41861b	-0.011811758
22	0x3f043871	0.5164862
23	0x3d3a4ee2	0.045485385
24	0x3f1b0b04	0.60563684
25	0xbe809a83	-0.25117883
26	0x3e74176e	0.23837063
27	0x3dd3a0d4	0.1033341
28	0xbe51b889	-0.20480551
29	0xbe3b10d3	-0.18268137
30	0x3e6773d2	0.22602776
31	0x3dc2b2f8	0.09506792
32	0x3e681184	0.22662932
33	0xbdb6531b	-0.0890257
34	0x3f0bcfb1	0.54613787
35	0xbdfbbc96	-0.12291829
36	0x3dcb3866	0.099228665
37	0xbe174100	-0.1477089
38	0x3e89e825	0.26934925
39	0x3f07c895	0.5304044
40	0xbe046e75	-0.12932761
41	0x3ddc530f	0.1075803
42	0xbea935e9	-0.33048943
43	0x3e8dad68	0.2767136
44	0xbdc1905b	-0.09451362
45	0x3e1a7183	0.15082364
46	0xbd979521	-0.07401491
47	0x3e27a20c	0.1637041
48	0xbd990f23	-0.0747359
49	0x3ec6c0a6	0.38818854
50	0x3ec8753d	0.39151946
51	0x3e9ebcb6	0.3100335
52	0x3da0674d	0.07832203
53	0xbe8c06bf	-0.27348897
54	0x3e33c5d6	0.17555937
55	0xbe0b3b30	-0.13596797
56	0x3e236174	0.15955144
57	0x3dcf8047	0.10131889
58	0x3d817f4e	0.063231096
59	0xbd2e4db6	-0.04255458
60	0x3e3e5d0f	0.18590187
61	0x3b012b72	0.0019709733
62	0xbeb9c1be	-0.36280626
63	0xbe9c70be	-0.30554765
64	0x3e91ce41	0.28477672
65	0x3e11f7bb	0.14254658
66	0xbdf8c2e5	-0.12146548
67	0xbe932a97	-0.2874343
68	0x3e36e625	0.1786123
69	0x3dacd0b2	0.08438243
70	0xbe48dd8c	-0.19615763
71	0x3d962382	0.07330991
72	0x3effb2ed	0.49941197
73	0x3e90b1a6	0.28260535
74	0x3e832958	0.2561748
75	0x3f1d1778	0.61363935
76	0xbeb33eb3	-0.35008773
77	0x3ed05e26	0.4069683
78	0x3d8e06ed	0.06934915
79	0x3ea8de4a	0.32982093

build_network/model/stacked_hg/hourglass0/shortcut_conv0/hg_conv_shortcut_02/hg_conv_shortcut_02_pwise_conv/Conv2D_bias f4 [16]
0	0x3edb7b90	0.42867708
1	0x3f93240e	1.1495378
2	0x3d0d88c5	0.03455426
3	0xbf0b6200	-0.5444641
4	0x404d9cf4	3.2127047
5	0x3fe185bc	1.7618937
6	0xbffa5d19	-1.9559661
7	0xbdab9c82	-0.08379461
8	0xc018b837	-2.3862436
9	0x402ee1da	2.732535
10	0xc03e0a32	-2.9693723
11	0xc0ccc0cc	-6.398535
12	0xc06a87b2	-3.6645322
13	0xc07a3641	-3.9095614
14	0xbf62b327	-0.88554615
15	0xc016fefb	-2.3593128

build_network/model/stacked_hg/hourglass0/shortcut_conv0/hg_conv_shortcut_03/hg_conv_shortcut_03_bottleneck/Conv2D_bias f4 [80]
0	0x3e7ee4fe	0.24892041
1	0xbe89df7a	-0.26928312
2	0xbda99ebc	-0.08282229
3	0x3e371aa3	0.17881255
4	0xbec356f1	-0.3815227
5	0xbe79beb3	-0.24389152
6	0x3e76a5c9	0.2408668
7	0x3daded3c	0.084925145
8	0x3d50d054	0.050979927
9	0xbde78b23	-0.11305835
10	0x3e5427b6	0.20718274
11	0xbe1186e0	-0.14211607
12	0x3d836380	0.064154625
13	0x3d6e7ce8	0.05822459
14	0x3e3e916d	0.18610163
15	0x3daff7c3	0.08592179
16	0x3dfcfc3a	0.12352796
17	0x3e230d87	0.15923129
18	0x3e45fb2f	0.193341
19	0x3e954954	0.29157507
20	0xbb338d18	-0.002739733
21	0x3e7083a2	0.23487714
22	0x3d4e093d	0.05030178
23	0x3ea8b47f	0.32950208
24	0x3ec162b0	0.37770605
25	0x3ee31dbe	0.4435863
26	0x3e0eb93a	0.13937846
27	0x3d827f77	0.06371968
28	0x3c81293a	0.015766729
29	0x3e5258e4	0.20541722
30	0x3e8b3f54	0.27196753
31	0x3e478bf4	0.19486982
32	0xbe7b7cef	-0.24559377
33	0x3eb4e44f	0.35330436
34	0x3db91c12	0.09038557
35	0x3eb132fb	0.34609208
36	0xbc41a507	-0.011819131
37	0xbcf22be0	-0.029561937
38	0xbee22caa	-0.441747
39	0xbe5491d4	-0.20758754
40	0xbb425f65	-0.002965891
41	0xbeb112af	-0.34584567
42	0xbe4c2def	-0.19939397
43	0xbcba0d3f	-0.022711394
44	0xbdecebb6	-0.11568396
45	0xbe5cc9e2	-0.21561387
46	0xbe7b0e69	-0.24517216
47	0xbd34c2fb	-0.04413126
48	0xbe17861a	-0.1479725
49	0x3c90676d	0.017627442
50	0xbe1eeaa5	-0.15519197
51	0x3f1a140b	0.60186833
52	0x3ebb9653	0.36638126
53	0xbd681422	-0.056659825
54	0xbe6a127e	-0.22858617
55	0x3f2f4a75	0.6847299
56	0x3c73b5e1	0.014874906
57	0x3bc33c0d	0.0059580863
58	0x3e576f83	0.21038632
59	0xbe8dfcbb	-0.2773188
60	0x3c6ac07f	0.014328121
61	0x3d661442	0.056171663
62	0xbe93a2a8	-0.28835034
63	0x3dddfbff	0.1083908
64	0x3ee88e8a	0.4542125
65	0xbeaf05d9	-0.3418415
66	0x3e5da2c8	0.21644127
67	0x3d57a7ca	0.05265025
68	0x3c8e8b72	0.017400477
69	0xbe67fb51	-0.22654463
70	0x3d6acc35	0.057323653
71	0xbe7a1cc5	-0.24425037
72	0x3d07ca4a	0.033151902
73	0xbdfd6129	-0.123720475
74	0xbe5d17f5	-0.2159117
75	0x3d769bca	0.060207166
76	0x3e19caa2	0.15018705
77	0xbe1d80a2	-0.15381101
78	0xbd544631	-0.051824752
79	0xbe66bf84	-0.22533995

build_network/model/stacked_hg/hourglass0/shortcut_conv0/hg_conv_shortcut_03/hg_conv_shortcut_03_dwise_conv/depthwise_bias f4 [80]
0	0x3ca5009d	0.020141894
1	0xbe507e90	-0.2036078
2	0xbef15036	-0.4713151
3	0x3e52b580	0.2057705
4	0xbeb00119	-0.34375837
5	0x3e882079	0.26587275
6	0xbdadf776	-0.08494465
7	0x3e707bb0	0.23484683
8	0x3dda50f6	0.10659973
9	0x3f4f25e0	0.8091717
10	0x3e8d55a7	0.2760441
11	0xbc6e14b5	-0.014531304
12	0x3e3056d6	0.17220625
13	0x3e819ed7	0.25316498
14	0xbe38ca9e	-0.18046042
15	0x3ee4eb60	0.44710827
16	0x3f0497a1	0.5179387
17	0x3e49b783	0.1969891
18	0xba73f72e	-0.0009306547
19	0xbefde91d	-0.49591914
20	0x3f257737	0.6463503
21	0x3e96dfdb	0.29467663
22	0xbe929a10	-0.28633165
23	0x3ea9f3a9	0.3319371
24	0x3e3c5ad0	0.18394017
25	0xbe02ff33	-0.12792663
26	0xbd659a0d	-0.056055117
27	0x3f10b99e	0.5653323
28	0xbed0f2a0	-0.40810108
29	0x3e47c741	0.19509603
30	0x3e817c2e	0.25290054
31	0x3e03bade	0.12864253
32	0xbcab089d	-0.02087813
33	0x3e96d0cc	0.29456174
34	0xbea6ed81	-0.32603076
35	0x3f0a4807	0.54016155
36	0xbe267f26	-0.16259441
37	0xbecf8ab8	-0.40535522
38	0x3e39a024	0.18127495
39	0xbeb6c0a9	-0.35693863
40	0xbe7d3479	-0.24727048
41	0xbebe34f1	-0.37149766
42	0xbe386a9d	-0.1800942
43	0x3d7f08b3	0.062264156
44	0x3e833483	0.25626
45	0x3f13801f	0.5761737
46	0xbecb493f	-0.3970432
47	0x3eca479a	0.39507753
48	0x3db74b40	0.089499
49	0x3ebc3112	0.36756188
50	0x3e19d890	0.15024018
51	0x3d46352f	0.048390564
52	0xbf0104c0	-0.5039787
53	0xbed55d77	-0.4167287
54	0xbd019356	-0.03163465
55	0x3e60eca5	0.21965273
56	0xbf01e68f	-0.5074243
57	0x3efc6f55	0.4930369
58	0xbd9745b1	-0.073863395
59	0x3d931a69	0.07182772
60	0x3f17b87b	0.5926587
61	0x3d6b0d0d	0.057385493
62	0xbde12651	-0.109936364
63	0xbda42648	-0.08015114
64	0x3e02f5d4	0.12789088
65	0xbe50a929	-0.2037703
66	0x3ef70e79	0.4825323
67	0x3cd90f63	0.026496595
68	0x3e6dd6e1	0.23226501
69	0xbe7ec05d	-0.24878068
70	0x3ec350cc	0.3814758
71	0xbe37bbe7	-0.17942773
72	0x3e36260b	0.1778795
73	0x3ecbae50	0.39781427
74	0x3a9e469e	0.0012075489
75	0x3e644c00	0.22294617
76	0xbef03983	-0.46918878
77	0xbe2bf183	-0.16791348
78	0xbd2c95ca	-0.042135037
79	0xbe3a09a1	-0.18167736

build_network/model/stacked_hg/hourglass0/shortcut_conv0/hg_conv_shortcut_03/hg_conv_shortcut_03_pwise_conv/Conv2D_bias f4 [16]
0	0xc09997f9	-4.7998013
1	0x40aff410	5.498543
2	0xbef41305	-0.4767076
3	0xbf5382d9	-0.8262153
4	0x3f3836ec	0.71958804
5	0x400d8091	2.210972
6	0xbff15c9d	-1.8856388
7	0xbfa82240	-1.3135452
8	0x40213c8b	2.5193202
9	0x404bb7f8	3.1831036
10	0xc0054da9	-2.082865
11	0x404e4b84	3.223359
12	0x402701c7	2.6094835
13	0xc13136ce	-11.07588
14	0xc10eb62b	-8.919475
15	0x3f22ad82	0.63546

build_network/model/stacked_hg/hourglass0/shortcut_conv0/hg_conv_shortcut_0linearbottle/hg_conv_shortcut_0linearbottle_bottleneck/Conv2D_bias f4 [16]
0	0x3f18df38	0.59715605
1	0xc01abdca	-2.4178338
2	0xbde831a4	-0.11337593
3	0xc03a8a90	-2.9147072
4	0x406d388c	3.7065763
5	0x3fa832fc	1.3140559
6	0xc0a25789	-5.0731854
7	0x4064deb6	3.5760932
8	0xbff87d35	-1.941321
9	0x407ad325	3.9191372
10	0x40b91ae8	5.7845345
11	0xc0964d9b	-4.6969733
12	0x40a6eea7	5.2166324
13	0x3ec05847	0.3756735
14	0xc0ac361d	-5.3816056
15	0xbeba280e	-0.36358684

build_network/model/stacked_hg/hourglass0/shortcut_conv0/hg_conv_shortcut_0linearbottle/hg_conv_shortcut_0linearbottle_dwise_conv/depthwise_bias f4 [16]
0	0x3e30ef38	0.17278755
1	0x3f2a6e45	0.6657451
2	0xbe281422	-0.1641393
3	0x3ebe4ae3	0.3716651
4	0x3de3c77f	0.11122035
5	0xbdaa02aa	-0.083012894
6	0x3e7d4ffe	0.24737546
7	0xbe9acbb3	-0.30233535
8	0xbc4019b6	-0.01172488
9	0x3dcf72b7	0.10129302
10	0x3ee9bca7	0.45651743
11	0x3e0db96d	0.13840266
12	0x3f1d01e5	0.61331016
13	0x3e9eb0c8	0.30994248
14	0x3edc6652	0.43046814
15	0xbe9d1621	-0.30680946

build_network/model/stacked_hg/hourglass0/shortcut_conv0/hg_conv_shortcut_0linearbottle/hg_conv_shortcut_0linearbottle_pwise_conv/Conv2D_bias f4 [16]
0	0xbde6a0dd	-0.11261151
1	0x3d0a4c8c	0.033764407
2	0xbd8158a9	-0.06315739
3	0xbd9dfc3a	-0.07714124
4	0xbe667ce5	-0.22508581
5	0xbf0d6a5d	-0.5524042
6	0xbe1160c6	-0.14197072
7	0xbcd76d85	-0.02629734
8	0xbddeed4d	-0.10885105
9	0xbeb38aa9	-0.35066727
10	0x3bc7cd72	0.006097489
11	0xbdb20178	-0.086916864
12	0xbf05c46c	-0.5225284
13	0xbef96ebb	-0.48717293
14	0x3e67b38c	0.22627085
15	0xbdd80786	-0.1054831

build_network/model/stacked_hg/hourglass0/shortcut_conv1/hg_conv_shortcut_10/hg_conv_shortcut_10_bottleneck/Conv2D_bias f4 [80]
0	0x3ed18373	0.409206
1	0x3e98eabf	0.29866597
2	0xbdbfe373	-0.09369554
3	0x3d8dfa6c	0.0693253
4	0x3f41921d	0.75613576
5	0x3e98ea09	0.29866055
6	0xbe2b4e09	-0.16728987
7	0x3e256091	0.16150118
8	0xbe21ae03	-0.15789036
9	0x3f01ce3b	0.5070531
10	0xbd01cce7	-0.03168955
11	0xbd5d554d	-0.054036427
12	0x3e0fb20b	0.14032762
13	0xbe5ffba5	-0.21873339
14	0x3f1ae5f4	0.6050713
15	0x3f797cad	0.97455865
16	0x3ed575bc	0.41691387
17	0x3e40d510	0.18831277
18	0xbf241bb4	-0.6410477
19	0x3d935377	0.07193654
20	0xbd1f9c58	-0.03896746
21	0xbd9c44f0	-0.07630336
22	0x3e010fc6	0.12603673
23	0xbe9e5eeb	-0.30931792
24	0xbd3bf57c	-0.04588841
25	0xbc95a716	-0.01826815
26	0x3e536724	0.20644814
27	0xbd858c4d	-0.06520901
28	0x3e9c4527	0.3052151
29	0x3e85bf16	0.2612235
30	0x3e508bb0	0.20365787
31	0x3d65039d	0.05591165
32	0x3e7c209c	0.24621814
33	0xbc1f0281	-0.009705187
34	0x3e840970	0.2578845
35	0xbbe72bfa	-0.007054803
36	0xbe5ce25e	-0.21570727
37	0xbe0eb1ae	-0.13934967
38	0x3d697e07	0.057004955
39	0xbcfd7b1f	-0.030942498
40	0xbdbdee66	-0.092739865
41	0x3e7e90d5	0.24859937
42	0xbd1ed537	-0.038777556
43	0x3e9c2d06	0.305031
44	0xbe8adfcd	-0.2712387
45	0xbdbbfb2e	-0.09178768
46	0xbe7f238d	-0.24915905
47	0x3c943924	0.018093653
48	0x3e95dec9	0.29271534
49	0xbbd0302f	-0.0063534
50	0x3f508472	0.81452096
51	0x3e2896da	0.16463795
52	0xbde5038d	-0.11182318
53	0xbdd12922	-0.102129236
54	0x3e464aa3	0.19364409
55	0x3e9179ea	0.28413326
56	0x3e9826b6	0.29717034
57	0xbe64f836	-0.2236031
58	0x3e8ddeab	0.27708945
59	0x3f179d72	0.5922462
60	0xbda91610	-0.08256161
61	0xbe694158	-0.22778833
62	0x3dc6222d	0.09674487
63	0xbe455a24	-0.19272667
64	0xbe973bbf	-0.2953777
65	0x3e95125b	0.29115567
66	0x3e0b4b3d	0.1360292
67	0x3f440cb6	0.76581895
68	0x3d19a76b	0.037513178
69	0x3e517c89	0.20457663
70	0x3ec7f6d8	0.39055514
71	0xbe9c628f	-0.30543944
72	0x3ef2907d	0.4737586
73	0xbe32ace3	-0.17448764
74	0xbf0e347f	-0.5554885
75	0xbf0315c2	-0.51205075
76	0x3e6ec98b	0.2331907
77	0xbebe7bfc	-0.37203968
78	0x3e46c7b1	0.19412114
79	0x3d85e876	0.06538479

build_network/model/stacked_hg/hourglass0/shortcut_conv1/hg_conv_shortcut_10/hg_conv_shortcut_10_dwise_conv/depthwise_bias f4 [80]
0	0x3e4c341f	0.19941758
1	0x3eb06ad0	0.3445649
2	0x3ea28d21	0.31748298
3	0x3de94084	0.113892585
4	0x3d91300d	0.07089243
5	0xbbfbb1ea	-0.007681121
6	0x3f584ae5	0.8448928
7	0x3e5972e2	0.2123523
8	0xbe00172d	-0.12508841
9	0x3de95659	0.11393423
10	0xbccd0794	-0.025028028
11	0xbe0797c2	-0.13241485
12	0xbe8bce00	-0.27305603
13	0xbe290879	-0.16507138
14	0x3e10611b	0.14099543
15	0x3db82c5b	0.08992835
16	0x3f08f109	0.5349279
17	0x3ea830ea	0.32849818
18	0xbebf7cad	-0.37399808
19	0x3e45510c	0.19269198
20	0xbeae7a1d	-0.3407754
21	0xbd9e993b	-0.0774407
22	0xbdc961f4	-0.09833136
23	0x3cf0d6fa	0.029399384
24	0xbe76a8d7	-0.24087845
25	0x3e2e4004	0.17016608
26	0x3dfe12fa	0.12405963
27	0x3eaad368	0.33364415
28	0xbe157d3d	-0.14598556
29	0x3efa7cde	0.4892339
30	0x3e5325ca	0.20619884
31	0x3e1d382b	0.15353458
32	0x3e582078	0.21106136
33	0xbbe92c71	-0.0071158935
34	0x3d780483	0.060551178
35	0xbeb4da2b	-0.353227
36	0xbdf246bf	-0.118299
37	0xbb954621	-0.004555479
38	0xbe35b04f	-0.17743038
39	0xbdbd5f7c	-0.09246728
40	0xbdba7c2f	-0.091057174
41	0x3e5d9a90	0.21640992
42	0x3d59ae0d	0.053144503
43	0x3ea93b1a	0.33052903
44	0x3ec421ff	0.38307187
45	0x3f13676f	0.575797
46	0x3ef3203e	0.47485536
47	0x3ec06e0a	0.37583953
48	0xbd8abccf	-0.06774294
49	0x3eaf84da	0.34281045
50	0x3e7293dc	0.23689216
51	0x3d9c9dfd	0.076473214
52	0x3d19c3d0	0.037540257
53	0xbe105d0d	-0.14097996
54	0x3e983c4b	0.297335
55	0xbc9bc63b	-0.019015422
56	0x3ebeb16d	0.3724474
57	0xbe10a71f	-0.14126252
58	0x3f3824bb	0.71931046
59	0xbc32d861	-0.010915847
60	0x3e96b0ad	0.29431668
61	0x3f1f9b3d	0.6234625
62	0x3d915c32	0.07097663
63	0x3f130e08	0.57443285
64	0xbe378ee3	-0.179256
65	0x3dce9693	0.100873135
66	0x3deaa35a	0.11456938
67	0x3db7b9fe	0.08971022
68	0xbaf09940	-0.0018356219
69	0x3ddc8cad	0.10769019
70	0x3e3581cb	0.17725293
71	0xbeb62f46	-0.35582942
72	0x3ebb8259	0.36622885
73	0x3e991fed	0.2990717
74	0xbec9810d	-0.3935627
75	0xbeb5ba0e	-0.3549351
76	0x3e9ea09b	0.30981907
77	0x3ee9e070	0.45679045
78	0x3d88e94f	0.06685125
79	0xbbe1d053	-0.0068912893
